evolved_d83978b6-38c7-4be5-b38a-5a00a19cf9cf_Best_76.pth (torch, 679612 bytes, 22 tensors)

conv1.weight f4 [32, 1, 3, 3]
0.06650134 -0.11368101 -0.026392564 0.54437274 -0.43328393 -0.33618483 0.49093762 0.029177938
0.0052840537 0.36925292 0.47473103 -0.28926203 0.20236033 -0.36954418 -0.1933431 -0.17449543
-0.36372563 0.33338186 0.2654186 -0.042410806 0.047743946 -0.15106033 0.018578049 -0.11779079
-0.30601364 -0.4142116 -0.45079553 0.2978824 -0.038901184 0.19699508 0.027991572 -0.7746808
0.044277444 0.13790639 -0.0783015 -0.042515192 -0.16272132 0.39831993 -0.050972216 -0.14742018
0.3734317 -0.01964579 -0.35896766 0.110264316 -0.014391636 0.071722515 0.013566724 -0.32432726
-0.21413095 0.31312394 -0.02170903 -0.30197802 0.2703057 -0.05831482 -0.1542681 -0.4393287
0.43173316 -0.11300785 -0.10319373 -0.27515197 0.06566681 0.13959777 -0.3754907 0.028072635
0.36147666 0.053149045 -0.5222146 0.0619735 0.2657605 -0.2502741 -0.22808251 0.2847716
0.24506208 -0.4327178 -0.4109636 0.2639772 0.49291846 0.14976417 -0.0936756 -0.15141228
0.039073978 -0.26441726 0.20261477 0.27641132 0.2589738 0.42242387 -0.098861866 -0.017716669
-0.28531578 -0.2411055 0.22396211 0.24044052 -0.58686846 -0.0060355677 -0.09810036 -0.1378385
-0.03924218 -0.16669126 -0.14784431 0.06940612 0.22962916 0.13425477 -0.13479209 0.49507385
-0.0039245076 0.22631142 0.08212432 -0.00050121313 -0.0002481111 0.5701424 -0.61514115 0.016078752
0.18109366 0.23677765 -0.29744565 -0.45699927 -0.0072954446 -0.03006561 -0.18008125 -0.11363063
-0.3014374 0.48779473 0.21904558 0.08962636 -0.06975689 -0.21138632 0.007774057 -0.42752144
0.022002693 -0.35750297 -0.27483645 0.00963827 0.43310055 0.22557075 -0.3488423 0.13377674
0.24614409 -0.3504784 0.17311396 -0.761527 0.0043185567 0.021022525 -0.24344888 0.050512046
-0.06535009 0.3162977 0.43633786 -0.3083535 0.122130744 0.14857125 -0.14637347 -0.3058299
-0.15874983 -0.2461844 -0.08406885 0.22637686 -0.30666468 -0.21281107 0.29443112 -0.0015568217
-0.3080452 0.12678294 0.22025818 0.29800126 -0.29938346 -0.2766229 -0.45254847 -0.140295
0.20849846 0.20037237 -0.036524836 -0.21169265 0.22587405 0.38608885 -0.15609877 -0.48337215
-0.2024349 -0.30219486 0.019015638 0.0037240293 -0.50608087 -0.0268733 0.28118435 -0.25307888
0.18152985 0.25359532 -0.35632554 0.039541427 0.033591785 -0.4293394 0.08939659 0.35711497
-0.38039267 0.05599291 0.8977425 0.27885455 0.3363332 0.16797744 -0.54297626 -0.1761209
-0.2195672 -0.268746 -0.08245116 -0.16284388 0.2749965 0.5808428 0.46233353 -0.34188598
-0.21456915 0.20661797 0.079927236 -0.2386246 0.11079839 0.38773644 0.4567192 -0.38791907
0.5221548 -0.28445008 0.39706334 -0.22913088 0.17474297 -0.23465057 0.17808357 0.25255883
-0.27426717 0.0010708508 -0.24039565 -0.15688528 -0.49974638 -0.078211695 -0.10604216 0.13429059
-0.51477045 -0.25372878 -0.09015154 -0.15548375 -0.16640157 0.00066607987 0.046801373 0.46704075
0.015168524 0.1819091 0.38225356 0.08798994 -0.11321259 0.04146963 -0.51918393 0.0032724033
0.32058057 -0.38757116 0.047281053 0.14866473 0.19538853 -0.44445696 0.033568993 0.17941894
00000000: db31 883d 97d1 e8bd 3835 d8bc 035c 0b3f
00000010: 64d7 ddbe 6b20 acbe 2d5c fb3e 9206 ef3c
00000020: db25 ad3b b80e bd3e f20f f33e 271a 94be
00000030: 8c37 4f3e e534 bdbe bcfb 45be eeae 32be
00000040: 3f3a babe 07b1 aa3e f2e4 873e f4b6 2dbd
00000050: 288f 433d 8faf 1abe fe30 983c 4c3c f1bd
00000060: d2ad 9cbe 8b13 d4be acce e6be 0b84 983e
00000070: d956 1fbd 14b9 493e 954e e53c 7b51 46bf
00000080: 445c 353d 5537 0d3e 895c a0bd 6924 2ebd
00000090: 6ba0 26be 97f0 cb3e 3ec8 50bd 51f5 16be
000000a0: 7132 bf3e 35f0 a0bc 9cca b7be 42d2 e13d
000000b0: e5ca 6bbc 41e3 923d f746 5e3c 390e a6be
000000c0: 2545 5bbe c851 a03e 23d7 b1bc dd9c 9abe
000000d0: 8265 8a3e 85db 6ebd 75f8 1dbe b1ef e0be
000000e0: 210c dd3e a970 e7bd 3c57 d3bd b8e0 8cbe
000000f0: 527c 863d b8f2 0e3e 5140 c0be 95f8 e53c
00000100: 7813 b93e d0b2 593d dbaf 05bf edd7 7d3d
00000110: c311 883e ed23 80be 768e 69be 95cd 913e
00000120: 8ef1 7a3e 308d ddbe d269 d2be 0528 873e
00000130: cf5f fc3e c75b 193e fed8 bfbd d20b 1bbe
00000140: 090c 203d b361 87be 3f7a 4f3e c985 8d3e
00000150: 3798 843e f147 d83e 1778 cabd 8c22 91bc
00000160: e914 92be 5ce4 76be 5356 653e 0a36 763e
00000170: 033d 16bf 03c6 c5bb d7e8 c8bd 8925 0dbe
00000180: 68bc 20bd 1db1 2abe 8064 17be cc24 8e3d
00000190: e823 6b3e 157a 093e f006 0abe 527a fd3e
000001a0: 2899 80bb 2ebe 673e cc30 a83d d863 03ba
000001b0: e814 82b9 daf4 113f e479 1dbf 96b7 833c
000001c0: 9e70 393e d775 723e cc4a 98be cffb e9be
000001d0: a00e efbb 274c f6bc 3867 38be 2db7 e8bd
000001e0: 0156 9abe 3bc0 f93e 7c4d 603e 068e b73d
000001f0: b3dc 8ebd a875 58be 84bd fe3b 17e4 dabe
00000200: fe3e b43c a10a b7be 5db7 8cbe d6e9 1d3c
00000210: 5bbf dd3e 05fc 663e 759b b2be c5fc 083e
00000220: 320d 7c3e e871 b3be c944 313e 6ff3 42bf
00000230: ae82 8d3b 6e37 ac3c aa4a 79be b8e5 4e3d
00000240: 45d6 85bd c6f1 a13e ad67 df3e 83e0 9dbe
00000250: af1f fa3d 1023 183e ede2 15be bd95 9cbe
00000260: 518f 22be c317 7cbe 4a2c acbd 56cf 673e
00000270: 2703 9dbe 25eb 59be adbf 963e 450e ccba
00000280: 1ab8 9dbe 63d3 013e 5c8b 613e 9f93 983e
00000290: ca48 99be 84a1 8dbe 6fb4 e7be 7ea9 0fbe
000002a0: 9f80 553e 6a2e 4d3e 119b 15bd f5c5 58be
000002b0: 874b 673e 70ad c53e 5bd8 1fbe 8e7c f7be
000002c0: 184b 4fbe 49b9 9abe afc6 9b3c d80e 743b
000002d0: 848e 01bf 6525 dcbc 65f7 8f3e 8e93 81be
000002e0: f6e2 393e 3fd7 813e 4d70 b6be 31f6 213d
000002f0: 8a97 093d 60d2 dbbe 8f15 b73d c6d7 b63e
00000300: d4c2 c2be d258 653d 74d2 653f 06c6 8e3e
00000310: dd33 ac3e 4702 2c3e 7e00 0bbf 0a59 34be
00000320: 39d6 60be 1399 89be 27dc a8bd 8cc0 26be
00000330: 57cc 8c3e 1db2 143f fbb6 ec3e ae0b afbe
00000340: 04b8 5bbe a993 533e e4b0 a33d 025a 74be
00000350: 44ea e23d 6485 c63e 19d7 e93e 549d c6be
00000360: f0ab 053f 71a3 91be e34b cb3e 49a1 6abe
00000370: d2ef 323e 3d48 70be 8a5b 363e 644f 813e
00000380: bf6c 8cbe ca5b 8c3a 472a 76be 89a6 20be
00000390: c2de ffbe 742d a0bd a22c d9bd 7983 093e
000003a0: ffc7 03bf bde8 81be 5fa1 b8bd 2237 1fbe
000003b0: 2c65 2abe dd9b 2e3a ccb2 3f3d f71f ef3e
000003c0: 6785 783c 6146 3a3e bdb6 c33e 1234 b43d
000003d0: 01dc e7bd 0fdc 293d 3de9 04bf d175 563b
000003e0: 2323 a43e ba6f c6be c7a9 413d 913b 183e
000003f0: ee13 483e dd8f e3be a47f 093d 99b9 373e

conv1.bias f4 [32]
-0.13905025 -0.15858611 0.19071111 0.07964779 0.018125761 0.1702729 -0.28387445 -0.22035585
0.07647298 -0.03769104 0.15756083 0.08145916 -0.48776296 -0.30893698 -0.29092857 -0.45240152
-0.3467504 0.43260136 0.1481182 0.501524 0.035747636 0.40560615 0.45267895 -0.10169251
-0.20397933 -0.17510845 0.13042733 -0.06280931 0.0150169125 -0.07123445 0.04879287 0.33955687
00000000: 3063 0ebe 6664 22be c649 433e 611e a33d
00000010: 7a7c 943c 055c 2e3e fe57 91be f7a4 61be
00000020: de9d 9c3d ec61 1abd a057 213e 0fd4 a63d
00000030: 11bc f9be fd2c 9ebe 97f4 94be 2ca1 e7be
00000040: 4589 b1be ed7d dd3e 4cac 173e e063 003f
00000050: 1d6c 123d 9cab cf3e 89c5 e73e 2a44 d0bd
00000060: f5df 50be a14f 33be be8e 053e 2ba2 80bd
00000070: 7f09 763c 5ee3 91bd 08db 473d 66da ad3e

bn1.weight f4 [32]
1.2878112 0.93526137 0.862947 1.1437689 1.1354272 0.6631401 1.0696728 0.8404852
1.1406848 1.1862338 1.2224983 0.5432031 1.041399 1.1354904 1.005619 0.8340937
0.93924755 1.050157 0.81156456 0.9486422 1.0618843 1.0848799 1.2359579 0.8667056
0.7789124 0.69256055 1.1425245 0.67872196 0.9587164 1.1561452 1.0524063 1.0678182
00000000: ffd6 a43f 4a6d 6f3f 18ea 5c3f 0567 923f
00000010: ae55 913f 8dc3 293f 0aeb 883f 0a2a 573f
00000020: f601 923f 82d6 973f d37a 9c3f 5c0f 0b3f
00000030: 904c 853f c057 913f 20b8 803f 2a87 553f
00000040: 8772 703f 8b6b 863f b2c2 4f3f 37da 723f
00000050: d3eb 873f 58dd 8a3f de33 9e3f 6be0 5d3f
00000060: ce66 473f a64b 313f 3e3e 923f b9c0 2d3f
00000070: 706e 753f 91fc 933f 40b5 863f 44ae 883f

bn1.bias f4 [32]
0.21059586 -0.39877632 -0.39497423 -0.2568479 0.06799654 0.13813744 -0.13666925 0.30190605
-0.12596579 -0.3400742 0.15390399 -0.42648324 -0.7098855 -0.6169508 -0.33096665 -0.123578735
0.0774917 -0.007463798 -0.15192595 0.116925836 -0.25452706 -0.61171937 -0.6737133 -0.4344809
-0.27702436 0.10917905 -0.23314883 -0.16096705 0.026846012 0.19597922 -0.027079852 -0.4517699
00000000: 71a6 573e 692c ccbe 103a cabe 9181 83be
00000010: c541 8b3d e773 0d3e 06f3 0bbe 6e93 9a3e
00000020: 2dfd 00be 351e aebe 0299 1d3e 035c dabe
00000030: 0ebb 35bf 7df0 1dbf 7674 a9be d916 fdbd
00000040: f8b3 9e3d e092 f4bb 7a92 1bbe d076 ef3d
00000050: 5f51 82be a499 1cbf 7a78 2cbf 4874 debe
00000060: 23d6 8dbe 4499 df3d 91be 6ebe 8cd4 24be
00000070: 2bec db3c c7ae 483e 91d6 ddbc 624e e7be

bn1.running_mean f4 [32]
0.0 0.0 0.0 0.0 0.0 0.0 0.0 0.0
0.0 0.0 0.0 0.0 0.0 0.0 0.0 0.0
0.0 0.0 0.0 0.0 0.0 0.0 0.0 0.0
0.0 0.0 0.0 0.0 0.0 0.0 0.0 0.0
00000000: 0000 0000 0000 0000 0000 0000 0000 0000
00000010: 0000 0000 0000 0000 0000 0000 0000 0000
00000020: 0000 0000 0000 0000 0000 0000 0000 0000
00000030: 0000 0000 0000 0000 0000 0000 0000 0000
00000040: 0000 0000 0000 0000 0000 0000 0000 0000
00000050: 0000 0000 0000 0000 0000 0000 0000 0000
00000060: 0000 0000 0000 0000 0000 0000 0000 0000
00000070: 0000 0000 0000 0000 0000 0000 0000 0000

bn1.running_var f4 [32]
1.0 1.0 1.0 1.0 1.0 1.0 1.0 1.0
1.0 1.0 1.0 1.0 1.0 1.0 1.0 1.0
1.0 1.0 1.0 1.0 1.0 1.0 1.0 1.0
1.0 1.0 1.0 1.0 1.0 1.0 1.0 1.0
00000000: 0000 803f 0000 803f 0000 803f 0000 803f
00000010: 0000 803f 0000 803f 0000 803f 0000 803f
00000020: 0000 803f 0000 803f 0000 803f 0000 803f
00000030: 0000 803f 0000 803f 0000 803f 0000 803f
00000040: 0000 803f 0000 803f 0000 803f 0000 803f
00000050: 0000 803f 0000 803f 0000 803f 0000 803f
00000060: 0000 803f 0000 803f 0000 803f 0000 803f
00000070: 0000 803f 0000 803f 0000 803f 0000 803f

conv2.weight f4 [64, 32, 3, 3]
0.00045965126 0.015491335 -0.21661712 0.16429597 0.23766622 -0.13666882 0.14254378 0.29631785
0.12852478 -0.089670375 -0.13318957 0.19450995 0.044786107 0.14454727 0.24664262 0.120807424
-0.20033024 -0.017284717 0.012514001 -0.29345593 -0.26543298 -0.116001114 -0.20514303 -0.31338295
-0.003214221 -0.27018538 -0.10810069 0.022304054 -0.23059891 -0.0448019 0.05901732 -0.02156654
0.46936384 0.46268395 -0.41945556 0.3064104 0.31309596 0.064119875 -0.03158039 0.077848226
-0.3219921 0.13928609 0.1072707 0.018700544 0.1142198 0.05608767 0.21204042 -0.10699664
0.045671135 0.08721 -0.30002633 -0.06375052 0.09233651 0.1639741 -0.16067353 -0.14226401
-0.19919538 -0.3547473 -0.018976953 0.16242245 0.026433643 0.3740791 -0.042896096 -0.046168283
0.20862244 0.11736018 -0.037331108 -0.21712671 0.022295006 -0.10411777 -0.27942365 0.286965
-0.31087112 -0.1595414 0.12866722 0.18821761 -0.15076134 -0.035983447 0.33250323 0.267671
0.06226473 -0.34782776 -0.13412327 0.15230383 -0.43839735 0.03108739 0.12518252 0.11685104
-0.0068489625 -0.07317641 0.35073522 -0.15376274 -0.23830904 -0.15592498 0.19559424 -0.09483228
-0.07494375 -0.11349086 -0.049174536 -0.28984883 -0.112374656 0.014977486 -0.1379707 -0.21192028
0.105333656 0.13159601 0.19588085 -0.16051553 -0.048798364 0.050940342 -0.04798513 -0.43157053
-0.23957482 -0.1293693 0.3170329 0.0057417895 0.040436648 0.011716036 0.20231695 0.28488103
-0.28406855 0.23852348 0.16051212 0.17133126 -0.26128322 -0.11616647 -0.30825347 0.34204906
0.11432859 -0.07559288 -0.1688668 0.24008675 0.15725422 0.2608365 0.28875133 -0.077358514
0.009218073 0.25248903 0.16173801 0.051861126 -0.22225411 0.008311522 -0.21076505 0.37570417
-0.3425167 -0.046036404 -0.34557876 -0.5929247 -0.089088455 0.326518 -0.073583625 -0.2843822
-0.1082432 0.14531867 0.14019912 0.052269332 0.33075112 0.025043841 -0.22073472 0.24680762
-0.4445009 -0.05931602 0.14409456 0.25902578 -0.118582055 -0.087840386 0.2570048 0.054651443
-0.34372813 0.0036439663 -0.11519882 -0.15399863 -0.2289434 0.034729887 -0.6192375 -0.08361674
0.29656976 -0.34104905 -0.39976963 -0.29436857 0.12584159 0.4418357 0.09932701 0.18324806
-0.26469198 -0.14444226 -0.036143966 -0.39457452 0.030656107 0.20684996 0.13892531 0.15222546
0.14881742 -0.17626801 -0.09850519 0.13521338 -0.11032899 0.034608748 -0.30870375 -0.02596359
0.21330659 0.0059674084 0.042787302 -0.16157517 0.12521292 0.15335424 -0.097602956 -0.028240332
-0.35178468 -0.06730206 0.07206014 -0.030830124 -0.07808347 0.016476246 -0.06309375 -0.10888669
-0.1727352 -0.10233308 -0.2769957 -0.27302736 -0.130521 -0.3500945 0.11714243 0.31453696
0.0064042835 0.046082314 0.016395755 0.12726039 -0.17863168 0.031138554 0.27640158 0.28846017
-0.14771758 0.45888466 -0.13006136 0.29657906 -0.04704237 0.26097503 -0.11365369 -0.2015695
0.33549246 -0.049498018 0.210517 0.20606038 0.10905863 -0.07441404 -0.30501932 -0.08849642
-0.043523025 0.12190568 -0.1694424 0.10525243 -0.103444755 0.55814016 0.16096437 0.31352183
00000000: 59fd f039 5ecf 7d3c e1d0 5dbe 343d 283e
00000010: c65e 733e e9f2 0bbe fff6 113e f9b6 973e
00000020: 009c 033e 1aa5 b7bd d962 08be 9e2d 473e
00000030: a371 373d 3304 143e e28f 7c3e e269 f73d
00000040: 5f23 4dbe ae98 8dbc 8607 4d3c db3f 96be
00000050: d5e6 87be fe91 edbd 0411 52be bb73 a0be
00000060: aea5 52bb bd55 8abe e563 ddbd feb6 b63c
00000070: 1f22 6cbe 3282 37bd 25bc 713d 50ac b0bc
00000080: 7550 f03e e9e4 ec3e e1c2 d6be d3e1 9c3e
00000090: 1d4e a03e 4851 833d 705a 01bd e46e 9f3d
000000a0: 26dc a4be 03a1 0e3e beb0 db3d e231 993c
000000b0: 12ec e93d 2fbc 653d 2021 593e 0e21 dbbd
000000c0: a811 3b3d 289b b23d 0d9d 99be a28f 82bd
000000d0: ed1a bd3d d4e8 273e 9a87 24be a8ad 11be
000000e0: e0f9 4bbe 70a1 b5be 8e75 9bbc 1252 263e
000000f0: 5e8b d83c 4c87 bf3e d1b3 2fbd f41a 3dbd
00000100: 1fa1 553e 895a f03d 81e8 18bd 7756 5ebe
00000110: 04a4 b63c b33b d5bd 9e10 8fbe 14ed 923e
00000120: 802a 9fbe d25e 23be 57c1 033e 1ebc 403e
00000130: 2e61 1abe 6163 13bd dd3d aa3e 2c0c 893e
00000140: 4d09 7f3d 7b16 b2be 9c57 09be 89f5 1b3e
00000150: 9e75 e0be fbaa fe3c d92f 003e 994f ef3d
00000160: 436d e0bb 83dd 95bd 9193 b33e fb73 1dbe
00000170: 4907 74be ccaa 1fbe db49 483e 6d37 c2bd
00000180: 1c7c 99bd e56d e8bd 3d6b 49bd 1167 94be
00000190: af24 e6bd 2164 753c 3148 0dbe a101 59be
000001a0: 2cb9 d73d 1bc1 063e fd94 483e 2f5e 24be
000001b0: cbe0 47bd d2a6 503d 0e8c 44bd d0f6 dcbe
000001c0: 1a53 75be 6379 04be 2352 a23e 9f25 bc3b
000001d0: e6a0 253d 9ef4 3f3c 2d2c 4f3e eddb 913e
000001e0: 6f71 91be 803f 743e 4a5d 243e 7671 2f3e
000001f0: eac6 85be b0e8 edbd 66d3 9dbe 0e21 af3e
00000200: 1c25 ea3d 71d0 9abd 6beb 2cbe 4dd9 753e
00000210: 4007 213e 5d8c 853e 37d7 933e 246e 9ebd
00000220: 6707 173c 3e46 813e a69e 253e 556c 543d
00000230: 9596 63be 0d2d 083c cbd2 57be 4c5c c03e
00000240: 595e afbe ab90 3cbd b3ef b0be eac9 17bf
00000250: 0274 b6bd 5e2d a73e 03b3 96bd 8b9a 91be
00000260: 9cae ddbd 6bce 143e 5c90 0f3e 5e18 563d
00000270: 3658 a93e be28 cd3c 4808 62be 23bb 7c3e
00000280: 9f95 e3be 5bf5 72bd 868d 133e 079f 843e
00000290: 26db f2bd a9e5 b3bd 2296 833e 31da 5f3d
000002a0: 22fd afbe 9ccf 6e3b 5ced ebbd d1b1 1dbe
000002b0: 2370 6abe ed40 0e3d 5986 1ebf 413f abbd
000002c0: fed7 973e fb9d aebe 9bae ccbe 7ab7 96be
000002d0: 9edc 003e 4a38 e23e f66b cb3d 61a5 3b3e
000002e0: b585 87be ace8 13be b20b 14bd ac05 cabe
000002f0: 8422 fb3c 7ad0 533e 7042 0e3e fee0 1b3e
00000300: 9863 183e 9a7f 34be 17bd c9bd 6075 0a3e
00000310: 2af4 e1bd e7c1 0d3d 6b0e 9ebe 98b1 d4bc
00000320: 0b6d 5a3e 408a c33b bd41 2f3d f673 25be
00000330: d137 003e e508 1d3e 0fe4 c7bd 4558 e7bc
00000340: 1f1d b4be aad5 89bd 4494 933d 758f fcbc
00000350: 3aea 9fbd 31f9 863c 4c37 81bd fcff debd
00000360: 7fe1 30be 0194 d1bd 61d2 8dbe 3eca 8bbe
00000370: 4ca7 05be 963f b3be 5fe8 ef3d fd0a a13e
00000380: 06db d13b cfc0 3c3d 6450 863c 8c50 023e
00000390: 39eb 36be 4816 ff3c 8284 8d3e 0db1 933e
000003a0: 4743 17be eef2 ea3e ce2e 05be 36d9 973e
000003b0: 80af 40bd 859e 853e 44c3 e8bd 3c68 4ebe
000003c0: abc5 ab3e 6fbe 4abd c591 573e 7e01 533e
000003d0: 225a df3d 6366 98bd 7e2b 9cbe 9c3d b5bd
000003e0: 3345 32bd afa9 f93d 4f82 2dbe 968e d73d
000003f0: d8da d3bd 46e2 0e3f d8d3 243e ef85 a03e

conv2.bias f4 [64]
-0.041270196 -0.12831889 -0.11767919 -0.0774744 0.012215359 -0.027698187 0.004334566 0.06163557
0.03395597 -0.09310795 -0.06976464 -0.0130310645 -0.036386162 -0.13686226 0.0088181 -0.13841161
0.0424032 -0.06794841 0.1203663 0.10860383 -0.0042353547 0.006310222 -0.01814526 -0.003817058
-0.11675312 0.10655022 -0.15313077 0.13428746 0.008570038 0.12399555 -0.11623348 -0.09214002
-0.0058578877 -0.17059003 -0.08476245 -0.18625544 -0.13186492 -0.057470113 -0.2587361 -0.0027989768
0.084824644 -0.1647421 -0.06886399 -0.18215977 -0.017211799 -0.27603534 -0.078315414 0.17441772
-0.18756117 -0.002011232 0.0881513 -0.015992977 0.21856442 -0.09001169 -0.07730962 0.11001535
0.11260968 -0.064342916 0.03790213 -0.14404416 0.11216681 0.17054781 -0.10203095 0.04788638
00000000: f00a 29bd 0766 03be ca01 f1bd e6aa 9ebd
00000010: ee22 483c 4fe7 e2bc fa08 8e3b 9475 7c3d
00000020: 6a15 0b3d 62af bebd c3e0 8ebd 3f80 55bc
00000030: a809 15bd 9f25 0cbe cb79 103c c6bb 0dbe
00000040: faae 2d3d 8928 8bbd 9b82 f63d af6b de3d
00000050: bbc8 8abb fbc5 ce3b 5ea5 94bc 9b27 7abb
00000060: 431c efbd 0037 da3d 50ce 1cbe a782 093e
00000070: 5869 0c3c 61f1 fd3d d20b eebd e8b3 bcbd
00000080: 86f3 bfbb 27af 2ebe ef97 adbd bfb9 3ebe
00000090: 9907 07be c865 6bbd 0f79 84be 0a6f 37bb
000000a0: 8bb8 ad3d 27b2 28be 9008 8dbd 1788 3abe
000000b0: c2ff 8cbc 8154 8dbe d563 a0bd 8f9a 323e
000000c0: 0910 40be e0ce 03bb ab88 b43d b403 83bc
000000d0: 5acf 5f3e 0d58 b8bd 8254 9ebd ba4f e13d
000000e0: e79f e63d 38c6 83bd 443f 1b3d 5080 13be
000000f0: b6b7 e53d 16a4 2e3e 9af5 d0bd 8224 443d

bn2.weight f4 [64]
0.7695512 0.9259625 0.918174 1.1327404 1.0368586 0.8653111 0.7206367 0.8352496
1.0426439 0.95091546 0.66115683 0.8043232 1.0620506 1.086882 0.99492806 0.85286885
0.8909288 0.9387719 0.785223 0.79469615 0.9475469 1.08365 1.123958 0.8474348
1.0001017 0.9476466 0.90794235 0.8132286 1.009547 1.0292745 0.96662325 0.5940236
0.80202353 1.0668029 0.9402347 0.7209524 1.0069917 0.78966516 0.95754427 1.0197275
0.87569714 1.042737 1.160813 1.0567926 0.8432875 1.1137455 0.73217475 0.7207125
1.1054528 1.0549418 1.1527475 0.89096594 0.98335016 0.73974603 1.1770419 1.0740643
1.0677859 0.8592141 1.1918528 0.8998968 0.92949617 0.87557733 0.62447906 0.9055024
00000000: 4f01 453f e10b 6d3f 740d 6b3f a3fd 903f
00000010: c8b7 843f 0785 5d3f a67b 383f ebd2 553f
00000020: 5b75 853f 326f 733f 9341 293f 20e8 4d3f
00000030: 46f1 873f f31e 8b3f 9bb3 7e3f 9d55 5a3f
00000040: e913 643f 5b53 703f 6004 493f 3571 4b3f
00000050: 6f92 723f 0bb5 8a3f dbdd 8f3f 7df1 583f
00000060: 5503 803f f898 723f e96e 683f c02f 503f
00000070: d638 813f 44bf 833f 9f74 773f ee11 183f
00000080: 6a51 4d3f ff8c 883f 39b3 703f 5690 383f
00000090: 1be5 803f 7f27 4a3f 9f21 753f 6e86 823f
000000a0: b02d 603f 6878 853f 8595 943f fb44 873f
000000b0: b1e1 573f 368f 8e3f ce6f 3b3f 9d80 383f
000000c0: 7a7f 8d3f 5508 873f 3b8d 933f 5816 643f
000000d0: d6bc 7b3f ff5f 3d3f 4fa9 963f f07a 893f
000000e0: 35ad 883f 75f5 5b3f a28e 983f a35f 663f
000000f0: 76f3 6d3f d625 603f dcdd 1f3f 01cf 673f

bn2.bias f4 [64]
-0.5002143 -0.38613224 -0.729943 -0.3091199 -0.6012244 -0.30371693 -0.2709766 -0.50986826
-0.46180394 -0.25938433 -0.28029275 -0.64359945 -0.60183984 -0.5645804 -0.25083828 -0.71775585
-0.027052542 -0.37256357 -0.5383315 -0.40226436 -0.47187856 -0.3982557 -0.5422184 -0.5672093
-0.83814394 -0.21267997 -0.621437 -0.12499292 -0.5608558 -0.36417735 -0.1823737 -0.7716705
-0.29655293 -0.36662856 -0.3692221 -0.33847314 -0.4880732 -0.42599946 -0.59766966 0.16804546
-0.49734586 -0.51058835 -0.5629964 -0.65768033 -0.6273289 -0.30609322 -0.48109618 -0.34886718
-0.47661698 -0.5546884 -0.44466937 -0.16758464 -0.40710342 -0.7932776 -0.5723407 -0.68575025
-0.5109353 -0.2476545 -0.6340735 -0.31129825 -0.44203278 -0.5570433 -0.568697 -0.4697452
00000000: 0b0e 00bf 20b3 c5be 8bdd 3abf f744 9ebe
00000010: d8e9 19bf c980 9bbe 72bd 8abe ba86 02bf
00000020: 9171 ecbe 06ce 84be 8882 8fbe efc2 24bf
00000030: 2d12 1abf 5788 10bf e06d 80be d9be 37bf
00000040: 4b9d ddbc a7c0 bebe 18d0 09bf 98f5 cdbe
00000050: 119a f1be 2ce8 cbbe d3ce 0abf a134 11bf
00000060: 9a90 56bf c7c8 59be 7f16 1fbf 4afc ffbd
00000070: 3f94 0fbf 7475 babe 2cc0 3abe 338c 45bf
00000080: c9d5 97be bdb6 bbbe ae0a bdbe 5a4c adbe
00000090: bbe4 f9be 9a1c dabe e100 19bf 1c14 2c3e
000000a0: 1ea4 febe ebb5 02bf 8820 10bf bd5d 28bf
000000b0: a098 20bf 40b8 9cbe 3d52 f6be b89e b2be
000000c0: 2407 f4be 0f00 0ebf b4ab e3be 4f9b 2bbe
000000d0: dc6f d0be 3e14 4bbf ec84 12bf 548d 2fbf
000000e0: a8cc 02bf 2499 7dbe a452 22bf 7c62 9fbe
000000f0: 1f52 e2be 649a 0ebf 2096 11bf 7182 f0be

bn2.running_mean f4 [64]
0.0 0.0 0.0 0.0 0.0 0.0 0.0 0.0
0.0 0.0 0.0 0.0 0.0 0.0 0.0 0.0
0.0 0.0 0.0 0.0 0.0 0.0 0.0 0.0
0.0 0.0 0.0 0.0 0.0 0.0 0.0 0.0
0.0 0.0 0.0 0.0 0.0 0.0 0.0 0.0
0.0 0.0 0.0 0.0 0.0 0.0 0.0 0.0
0.0 0.0 0.0 0.0 0.0 0.0 0.0 0.0
0.0 0.0 0.0 0.0 0.0 0.0 0.0 0.0
00000000: 0000 0000 0000 0000 0000 0000 0000 0000
00000010: 0000 0000 0000 0000 0000 0000 0000 0000
00000020: 0000 0000 0000 0000 0000 0000 0000 0000
00000030: 0000 0000 0000 0000 0000 0000 0000 0000
00000040: 0000 0000 0000 0000 0000 0000 0000 0000
00000050: 0000 0000 0000 0000 0000 0000 0000 0000
00000060: 0000 0000 0000 0000 0000 0000 0000 0000
00000070: 0000 0000 0000 0000 0000 0000 0000 0000
00000080: 0000 0000 0000 0000 0000 0000 0000 0000
00000090: 0000 0000 0000 0000 0000 0000 0000 0000
000000a0: 0000 0000 0000 0000 0000 0000 0000 0000
000000b0: 0000 0000 0000 0000 0000 0000 0000 0000
000000c0: 0000 0000 0000 0000 0000 0000 0000 0000
000000d0: 0000 0000 0000 0000 0000 0000 0000 0000
000000e0: 0000 0000 0000 0000 0000 0000 0000 0000
000000f0: 0000 0000 0000 0000 0000 0000 0000 0000

bn2.running_var f4 [64]
1.0 1.0 1.0 1.0 1.0 1.0 1.0 1.0
1.0 1.0 1.0 1.0 1.0 1.0 1.0 1.0
1.0 1.0 1.0 1.0 1.0 1.0 1.0 1.0
1.0 1.0 1.0 1.0 1.0 1.0 1.0 1.0
1.0 1.0 1.0 1.0 1.0 1.0 1.0 1.0
1.0 1.0 1.0 1.0 1.0 1.0 1.0 1.0
1.0 1.0 1.0 1.0 1.0 1.0 1.0 1.0
1.0 1.0 1.0 1.0 1.0 1.0 1.0 1.0
00000000: 0000 803f 0000 803f 0000 803f 0000 803f
00000010: 0000 803f 0000 803f 0000 803f 0000 803f
00000020: 0000 803f 0000 803f 0000 803f 0000 803f
00000030: 0000 803f 0000 803f 0000 803f 0000 803f
00000040: 0000 803f 0000 803f 0000 803f 0000 803f
00000050: 0000 803f 0000 803f 0000 803f 0000 803f
00000060: 0000 803f 0000 803f 0000 803f 0000 803f
00000070: 0000 803f 0000 803f 0000 803f 0000 803f
00000080: 0000 803f 0000 803f 0000 803f 0000 803f
00000090: 0000 803f 0000 803f 0000 803f 0000 803f
000000a0: 0000 803f 0000 803f 0000 803f 0000 803f
000000b0: 0000 803f 0000 803f 0000 803f 0000 803f
000000c0: 0000 803f 0000 803f 0000 803f 0000 803f
000000d0: 0000 803f 0000 803f 0000 803f 0000 803f
000000e0: 0000 803f 0000 803f 0000 803f 0000 803f
000000f0: 0000 803f 0000 803f 0000 803f 0000 803f

conv3.weight f4 [128, 64, 3, 3]
0.13579409 0.23316395 0.09758172 -0.17732774 0.050271153 -0.16043317 0.21483786 0.36265653
-0.102261126 -0.1806059 -0.20154937 -0.19581075 0.06674483 0.10981036 0.16770588 -0.17146173
-0.3797011 -0.4791658 0.096022114 0.044982754 -0.007193497 -0.18719773 -0.21378447 0.019977206
-0.39188793 0.023272807 0.10743658 0.003236688 0.2905944 -0.047965806 0.11657833 0.21592791
-0.1732241 0.1611249 -0.30810308 -0.3847074 -0.28961667 -0.17117125 0.526955 0.14931107
-0.006563916 -0.46379095 -0.03773137 -0.33232346 -0.25338155 0.36302388 -0.1732948 -0.23287451
0.075311564 -0.00066593103 0.021443158 0.05456355 0.056532152 -0.1735217 -0.09638884 -0.20049904
-0.17123319 0.011463769 0.35782823 -0.2679436 -0.28739157 -0.49434572 -0.0905686 -0.07753102
-0.032010276 -0.16429749 -0.06968613 -0.19022371 0.26264906 -0.11423989 -0.19345999 -0.17385082
-0.01722623 0.0777536 0.06911967 0.01089675 -0.057449877 -0.3535791 -0.25190586 -0.30710056
-0.4893613 0.13511814 -0.0100412965 -0.181821 -0.1405962 -0.17306231 0.04585526 -0.24889165
-0.04892235 -0.28183696 -0.06989424 0.07549014 -0.43360585 -0.0256352 -0.31064078 -0.048823114
0.19783448 0.049782865 -0.15534684 0.19604692 -0.12217125 -0.091882735 -0.28201094 -0.0073920563
-0.015280746 -0.4397748 -0.06840645 -0.33881536 -0.17924735 -0.061105788 0.053982284 -0.22319649
0.16415867 0.079793364 -0.13354102 -0.17894794 -0.2808102 -0.5522769 0.3343671 -0.07019605
-0.34619796 -0.038675413 -0.14041698 0.19137421 -0.18490468 -0.2078849 -0.07842589 -0.080224894
0.12787868 0.18208964 -0.0045579667 -0.24515074 -0.3539204 -0.107117124 -0.35792452 0.013563624
-0.06753252 -0.27452028 0.014491199 -0.2458787 0.047880128 -0.2148391 -0.14205176 0.29177755
0.14737843 -0.10825129 -0.14508843 0.29667777 -0.15577663 0.3335522 -0.39922035 -0.06971845
-0.1856704 -0.0017392081 0.036617115 -0.13087393 -0.2226887 0.13285324 -0.12633467 -0.22040442
-0.03620788 -0.015357009 0.09030935 -0.1797672 -0.2697102 -0.2754676 0.3711435 -0.07296751
0.17387116 0.14119945 0.0031374355 0.0009914485 0.07072543 0.076332964 0.2398544 0.0032100924
-0.27386922 0.14229748 -0.0066219345 -0.23846988 -0.12384798 0.27088568 -0.051631153 0.10379041
0.21967192 0.110557824 -0.019368356 -0.106020845 -0.07883223 -0.10886679 0.22002341 -0.08411616
0.22338524 -0.22190112 -0.36803848 0.034101576 -0.092598684 -0.06564741 -0.0642381 0.22406244
0.27547288 0.25747058 -0.28329355 0.18757463 0.011125039 -0.15162197 0.23188859 0.1204971
-0.026388658 0.039051723 -0.11320171 -0.18258135 -0.13551816 -0.14978415 -0.024470672 -0.40015665
0.20766002 -0.37157673 0.009755263 0.30727145 0.013062866 0.16047072 0.040470455 -0.16301683
-0.10033807 -0.3083044 0.03871539 0.17129056 -0.40249753 0.084136635 -0.1638443 -0.5770751
-0.39269125 -0.21601804 -0.25145882 -0.07936715 -0.11967708 0.08240324 0.464008 -0.17802939
-0.114385 0.2139365 -0.006652927 0.17476541 -0.19612402 -0.27340922 0.030703764 -0.1606395
-0.016283257 0.12173907 -0.29142022 0.045978937 0.04560299 -0.05172893 0.108115844 0.13426775
00000000: 9b0d 0b3e 88c2 6e3e edd8 c73d 6795 35be
00000010: 20e9 4d3d 9848 24be 75fe 5b3e 1eae b93e
00000020: 486e d1bd c1f0 38be f562 4ebe 9d82 48be
00000030: 83b1 883d 41e4 e03d 17bb 2b3e aa93 2fbe
00000040: 2f68 c2be 3855 f5be 3ea7 c43d d63f 383d
00000050: 6db7 ebbb c3b0 3fbe 51ea 5abe 3da7 a33c
00000060: 89a5 c8be 9da6 be3c b607 dc3d 9d1e 543b
00000070: cac8 943e cb77 44bd 9fc0 ee3d 351c 5d3e
00000080: a961 31be edfd 243e b0bf 9dbe 5ef8 c4be
00000090: a348 94be 8447 2fbe 86e6 063f 00e5 183e
000000a0: 1e16 d7bb 0276 edbe 368c 1abd 4d26 aabe
000000b0: 3abb 81be 44de b93e 3174 31be a876 6ebe
000000c0: f33c 9a3d e091 2eba 90a9 af3c 077e 5f3d
000000d0: 428e 673d acaf 31be 8367 c5bd 9f4f 4dbe
000000e0: c157 2fbe 88d2 3b3c 4335 b73e e72f 89be
000000f0: fd24 93be e21a fdbe 087c b9bd 95c8 9ebd
00000100: 351d 03bd 9a3d 28be 9ab7 8ebd 01ca 42be
00000110: f079 863e 9af6 e9bd 601a 46be f305 32be
00000120: 061e 8dbc 483d 9f3d 9d8e 8d3d 4888 323c
00000130: 9050 6bbd 5208 b5be cef9 80be 493c 9dbe
00000140: 908d fabe 695c 0a3e 4084 24bc 492f 3abe
00000150: 73f8 0fbe 3f37 31be bad2 3b3d 74dd 7ebe
00000160: cd62 48bd ef4c 90be b624 8fbd 939a 9a3d
00000170: 9601 debe e900 d2bc 4f0c 9fbe bffa 47bd
00000180: 1f95 4a3e 1ee9 4b3d 3e13 1fbe 86c0 483e
00000190: ec34 fabd 042d bcbd bd63 90be 1039 f2bb
000001a0: 185c 7abc 2a2a e1be ae18 8cbd 3579 adbe
000001b0: 9e8c 37be 104a 7abd 871c 5d3d 9f8d 64be
000001c0: 3619 283e b46a a33d fabe 08be 213e 37be
000001d0: 5bc6 8fbe 0562 0dbf 2a32 ab3e f2c2 8fbd
000001e0: dc40 b1be 1c6a 1ebd 78c9 0fbe 9af7 433e
000001f0: a757 3dbe c7df 54be c19d a0bd f34c a4bd
00000200: a1f2 023e b575 3a3e ff5a 95bb cc08 7bbe
00000210: 0e35 b5be 3960 dbbd e241 b7be f639 5e3c
00000220: 7d4e 8abd ec8d 8cbe 7e6c 6d3c a0c7 7bbe
00000230: f41d 443d c8fe 5bbe 0476 11be de63 953e
00000240: 5fea 163e dab2 ddbd 1092 14be 26e6 973e
00000250: e983 1fbe 5bc7 aa3e 9c66 ccbe 8cc8 8ebd
00000260: 6220 3ebe 24f6 e3ba d4fb 153d d103 06be
00000270: 8208 64be ae0a 083e e05d 01be b2b1 61be
00000280: b74e 14bd f79b 7bbc 1cf4 b83d e514 38be
00000290: 7517 8abe 170a 8dbe 8506 be3e fd6f 95bd
000002a0: 480b 323e 9796 103e 6f9d 4d3b 7ef3 813a
000002b0: 7fd8 903d 7554 9c3d 649c 753e 6a60 523b
000002c0: 9638 8cbe 6eb6 113e d0fc d8bb 7331 74be
000002d0: 02a4 fdbd 87b1 8a3e 307b 53bd 1190 d43d
000002e0: adf1 603e 246c e23d 63aa 9ebc 7521 d9bd
000002f0: cb72 a1bd 8df5 debd d14d 613e 1845 acbd
00000300: 1abf 643e 0c3a 63be 8a6f bcbe 18ae 0b3d
00000310: 61a4 bdbd 2672 86bd 448f 83bd a070 653e
00000320: c80a 8d3e 2fd3 833e da0b 91be 9013 403e
00000330: cc45 363c ca42 1bbe 3474 6d3e 2fc7 f63d
00000340: 072d d8bc b3f4 1f3d 4cd6 e7bd 9bf6 3abe
00000350: 46c5 0abe 0461 19be b876 c8bc 55e1 ccbe
00000360: d4a4 543e 4e3f bebe 8ad4 1f3c af52 9d3e
00000370: a205 563c 7052 243e 59c4 253d e2ed 26be
00000380: 0c7e cdbd 13da 9dbe 0794 1e3d cb66 2f3e
00000390: 2814 cebe d44f ac3d cdc6 27be 32bb 13bf
000003a0: d40e c9be d533 5dbe 36bf 80be 3f8b a2bd
000003b0: 4219 f5bd 08c3 a83d 7592 ed3e 564d 36be
000003c0: af42 eabd 2b12 5b3e cc00 dabb b4f5 323e
000003d0: bcd4 48be 4bfc 8bbe 7686 fb3c ae7e 24be
000003e0: 7764 85bc 5552 f93d 0835 95be 6954 3c3d
000003f0: 33ca 3a3d b7e1 53bd d76b dd3d 7c7d 093e

conv3.bias f4 [128]
0.10903491 0.07260681 -0.1705877 -0.091804676 -0.084632054 0.25863945 -0.20491663 -0.0001092249
-0.08257631 -0.028512971 -0.035039194 0.111467235 -0.00987836 -0.08334523 -0.056554675 -0.33057937
0.33579 0.1783506 -0.109927684 -0.23768814 -0.06833188 0.039401136 -0.037069317 -0.12149841
-0.19223246 -0.110125095 -0.08271253 0.069880635 0.17531155 -0.27502695 0.030219968 0.022507705
0.13296603 0.14085908 -0.08331145 -0.012285421 -0.027607732 0.08111258 0.0767779 0.012025414
-0.09475517 -0.05403747 -0.014483433 -0.19469997 -0.035205994 0.10361568 -0.13151455 0.00073438464
-0.031220747 -0.062712595 -0.04264846 0.03683308 -0.03259943 -0.027412113 0.044820715 -0.0082541285
-0.044300135 0.09788905 0.07032048 0.10455397 -0.17272666 0.23124962 -0.2710196 0.036587033
-0.047091197 0.1101982 0.08241307 0.11806604 -0.06386269 0.23235147 0.17767793 -0.009080162
0.040994294 0.14601396 -0.00995975 -0.24579781 -0.0049404446 -0.16955051 -0.3279466 -0.26550898
-0.003677237 0.119381495 0.013195962 0.20362027 -0.16427849 -0.098910406 -0.060309105 -0.09937313
0.02232436 -0.07545756 -0.10071458 0.1050343 -0.006325754 -0.0069938977 -0.15142015 0.15598707
-0.09092768 0.0117527 0.03465724 0.12672232 -0.055179194 0.366816 -0.06900446 0.18300451
-0.029503597 0.23994742 0.010261355 0.10583746 -0.13209455 -0.03508304 -0.07510561 -0.18728979
-0.06316003 0.10424888 0.07751208 0.016480723 0.05663784 0.095987834 -0.15268275 0.107345
-0.15283598 -0.040314738 0.05631 -0.14355576 -0.0330447 0.04128065 -0.028462695 0.30399594
00000000: b24d df3d e1b2 943d 8bae 2ebe 1704 bcbd
00000010: 9253 adbd 646c 843e aad5 51be ac0f e5b8
00000020: c51d a9bd 0994 e9bc 4285 0fbd ef48 e43d
00000030: d8d8 21bc e7b0 aabd e0a5 67bd b341 a9be
00000040: abec ab3e 8aa1 363e c421 e1bd 8564 73be
00000050: 96f1 8bbd 1663 213d ffd5 17bd 29d4 f8bd
00000060: 96d8 44be 4489 e1bd 3065 a9bd 941d 8f3d
00000070: df84 333e 55d0 8cbe de8f f73c 1462 b83c
00000080: 3f28 083e 5d3d 103e 329f aabd ca48 49bc
00000090: 9c29 e2bc 5a1e a63d bb3d 9d3d 3e06 453c
000000a0: 000f c2bd 6556 5dbd ec4b 6dbc 6e5f 47be
000000b0: 2934 10bd 7534 d43d c0ab 06be b883 403a
000000c0: a7c2 ffbc 766f 80bd 27b0 2ebd 49de 163d
000000d0: fb86 05bd 5e8f e0bc ed95 373d 533c 07bc
000000e0: 0f74 35bd 0e7a c83d 2f04 903d 6420 d63d
000000f0: 42df 30be b3cc 6c3e 15c3 8abe 49dc 153d
00000100: b3e2 40bd 98af e13d 2fc8 a83d 9ccc f13d
00000110: 71ca 82bd 8bed 6d3e 34f1 353e f6c4 14bc
00000120: a2e9 273d af84 153e 382e 23bc 6cb2 7bbe
00000130: 74e3 a1bb a69e 2dbe 9ee8 a7be cbf0 87be
00000140: cdfd 70bb 497e f43d e033 583c d581 503e
00000150: 9f38 28be 8a91 cabd ae06 77bd 2484 cbbd
00000160: 94e1 b63c 7e89 9abd 7243 cebd 391c d73d
00000170: 4548 cfbb 112d e5bb e20d 1bbe 13bb 1f3e
00000180: 4b38 babd 668e 403c c0f4 0d3d 7fc3 013e
00000190: 9403 62bd 4fcf bb3e 3652 8dbd 8965 3b3e
000001a0: 87b1 f1bc c7b4 753e 3e1f 283c 4fc1 d83d
000001b0: cb43 07be 3cb3 0fbd f8d0 99bd e5c8 3fbe
000001c0: 0c5a 81bd 7080 d53d a7be 9e3d 9502 873c
000001d0: 14fd 673d 4595 c43d de58 1cbe b2d7 db3d
000001e0: 0981 1cbe 1121 25bd 51a5 663d 4800 13be
000001f0: e159 07bd e615 293d 992a e9bc 5ba5 9b3e

bn3.weight f4 [128]
0.8951787 0.9623103 0.9940551 0.8543524 1.0399816 1.0100259 0.9255646 0.9814285
0.92997587 0.7719451 0.78468716 0.9602252 0.9431986 0.6907228 0.93126607 0.73967135
0.89675814 1.2368256 0.62350917 0.8979455 0.8468023 1.0567504 0.9705747 1.0343708
1.006399 0.8972418 0.94011843 0.948224 0.678787 0.942793 0.895108 1.0302128
0.6388899 1.0892262 0.6568186 1.0234405 0.82897145 0.895191 0.853082 0.7689241
0.9258608 1.1609945 1.1913953 0.8725063 1.2017938 0.8391397 0.97004306 1.1663717
1.0088685 1.0545651 0.84811944 0.9145136 0.83035994 0.9077883 1.029127 0.8195979
1.0809422 0.8670171 0.5012119 0.95063484 1.0761122 0.9369219 1.0270848 1.155807
1.160871 0.92407143 1.2322799 1.0425287 0.81488144 0.92922884 0.9646697 1.0974115
1.094302 1.1500914 0.9652862 0.93191713 0.9457945 1.0730122 0.8885606 0.89634717
0.92218673 0.89006853 0.9703336 0.9959253 0.7270702 0.8764132 0.99046165 0.8665247
0.9310951 0.82957554 1.1017668 1.0436876 1.1265383 0.81739515 1.0479414 1.0925107
1.1837248 0.88782084 1.1642333 0.87273985 1.1124846 1.0718608 0.94281447 1.0634031
1.1390148 1.005098 1.2205261 1.2173228 1.3492311 0.87747943 0.6322948 0.7532935
0.5470216 1.0372277 0.9024832 0.79809225 1.2476946 0.8192375 1.148185 1.0099053
1.0889221 1.1639327 0.7792568 0.769931 1.1051745 0.9226108 0.89904493 1.1410868
00000000: 6e2a 653f f859 763f 657a 7e3f d7b6 5a3f
00000010: 1e1e 853f 8748 813f cdf1 6c3f e63e 7b3f
00000020: e612 6e3f 329e 453f 42e1 483f 52d1 753f
00000030: 7775 713f 36d3 303f 7467 6e3f 1a5b 3d3f
00000040: f191 653f 4d50 9e3f 4c9e 1f3f c2df 653f
00000050: 09c8 583f 9943 873f 9577 783f 4366 843f
00000060: afd1 803f a3b1 653f 9aab 703f cfbe 723f
00000070: fcc4 2d3f e25a 713f cc25 653f 03de 833f
00000080: 4a8e 233f c46b 8b3f 4425 283f 1900 833f
00000090: 7937 543f 3d2b 653f 9563 5a3f 36d8 443f
000000a0: 3705 6d3f 789b 943f a47f 983f 935c 5f3f
000000b0: 61d4 993f dcd1 563f be54 783f ab4b 953f
000000c0: 9a22 813f fdfb 863f 5b1e 593f 901d 6a3f
000000d0: 7892 543f d064 683f 6fba 833f 2bd1 513f
000000e0: 505c 8a3f d5f4 5d3f 6c4f 003f ce5c 733f
000000f0: 0bbe 893f 1dda 6f3f 8477 833f 7cf1 933f
00000100: 6c97 943f f28f 6c3f 59bb 9d3f 9571 853f
00000110: 129c 503f f1e1 6d3f 98f4 763f fb77 8c3f
00000120: 1712 8c3f 3236 933f ff1c 773f 1f92 6e3f
00000130: 971f 723f 7758 893f b578 633f 0277 653f
00000140: 6e14 6c3f 88db 633f c867 783f f6f4 7e3f
00000150: 4621 3a3f 9e5c 603f e58e 7d3f 90d4 5d3f
00000160: 405c 6e3f 105f 543f b206 8d3f 8e97 853f
00000170: 6832 903f cf40 513f f222 863f 64d7 8b3f
00000180: 4b84 973f 3a48 633f 9905 953f e16b 5f3f
00000190: e565 8e3f bc32 893f 4a5c 713f 981d 883f
000001a0: 3dcb 913f 0da7 803f 333a 9c3f 3cd1 9b3f
000001b0: 9bb3 ac3f 7ea2 603f 12de 213f d8d7 403f
000001c0: 9c09 0c3f e1c3 843f 2409 673f c64f 4c3f
000001d0: 75b4 9f3f 8cb9 513f baf7 923f 9444 813f
000001e0: cd61 8b3f bffb 943f 607d 473f 331a 453f
000001f0: 5c76 8d3f 3930 6c3f cf27 663f 220f 923f

bn3.bias f4 [128]
-0.30531117 -0.29712293 -0.1258801 -0.42313743 -0.37176856 -0.19026689 -0.42282206 -0.29165167
-0.51012665 -0.6023236 -0.5932577 -0.5367502 -0.3595095 -0.43494087 -0.19446117 -0.40889832
-0.32640472 -0.4937994 -0.39226133 -0.26902628 -0.34014094 -0.5332868 -0.17780948 -0.2831301
-0.64412326 -0.4142913 -0.5776017 -0.33941475 -0.38769373 -0.3801538 -0.9102162 -0.5306081
-0.1478819 -0.32164583 -0.2600783 -0.660623 -0.33432993 -0.46106833 -0.22431085 -0.61116683
-0.3965522 -0.31082994 -0.47858828 -0.56610334 -0.64538383 -0.34966335 -0.11211809 -0.5255462
-0.21910924 -0.2717683 -0.5387983 -0.111109644 -0.4659829 -0.3118084 -0.65911955 -0.44739667
-0.3806841 -0.45693845 -0.5641648 -0.5825592 -0.3802021 -0.18251327 -0.58254766 -0.20231262
-0.3885257 -0.41620237 -0.88005954 -0.49642175 -0.38117623 -0.5715073 -0.23858549 -0.32427356
-0.36500221 -0.4858817 -0.3905162 -0.5419714 -0.35934943 -0.2791271 -0.49741355 -0.32753205
-0.34284347 -0.6354969 -0.35564235 -0.4423607 -0.32926917 -0.26247814 -0.041233566 -0.41626298
-0.38049355 -0.28224477 -0.722759 -0.4152131 -0.36722487 -0.43050143 -0.57282436 -0.09703638
-0.42841294 -0.6440065 -0.47861588 -0.2794051 -0.6520864 -0.56894726 -0.37347627 -0.5709351
-0.3074101 -0.42234305 -0.4179792 -0.6286081 -0.74409276 -0.6290762 -0.2899689 -0.46709496
-0.49619284 -0.55733615 -0.55523837 -0.7807828 -0.61616606 -0.6881605 -0.39983517 -0.7776278
-0.5277911 -0.18644911 -0.60630757 -0.25993353 -0.42243788 -0.5946719 -0.35456938 -0.39131656
00000000: bf51 9cbe 7f20 98be b7e6 00be 78a5 d8be
00000010: 7358 bebe 53d5 42be 227c d8be 5e53 95be
00000020: a997 02bf e131 1abf bddf 17bf 7668 09bf
00000030: a111 b8be 92b0 debe d420 47be 1f5b d1be
00000040: 851e a7be 46d3 fcbe 7ad6 c8be d0bd 89be
00000050: f426 aebe 7c85 08bf b013 36be 6ef6 90be
00000060: 43e5 24bf fd1d d4be b4dd 13bf c5c7 adbe
00000070: cb7f c6be 85a3 c2be ee03 69bf efd5 07bf
00000080: 5a6e 17be c3ae a4be fc28 85be 971e 29bf
00000090: 4b2d abbe 2611 ecbe beb1 65be 6e75 1cbf
000000a0: e408 cbbe 1a25 9fbe 8609 f5be 26ec 10bf
000000b0: e037 25bf 1307 b3be 2b9e e5bd 328a 06bf
000000c0: 2c5e 60be 3725 8bbe afee 09bf 748d e3bd
000000d0: 5095 eebe 5aa5 9fbe 0fbc 28bf 2d11 e5be
000000e0: 07e9 c2be d6f3 e9be 1b6d 10bf 9a22 15bf
000000f0: daa9 c2be c2e4 3abe d821 15bf 0a2b 4fbe
00000100: d7ec c6be 7a18 d5be 954b 61bf fe2a febe
00000110: 8829 c3be 4d4e 12bf c14f 74be 2f07 a6be
00000120: 92e1 babe 7cc5 f8be bdf1 c7be a3be 0abf
00000130: a6fc b7be bfe9 8ebe fdac febe 48b2 a7be
00000140: 2e89 afbe edaf 22bf c116 b6be 1a7d e2be
00000150: f895 a8be 8963 86be 87e4 28bd 6c20 d5be
00000160: 0dd0 c2be 6382 90be bc06 39bf d096 d4be
00000170: e604 bcbe af6a dcbe 9ea4 12bf 02bb c6bd
00000180: f158 dbbe 9cdd 24bf 240d f5be 2f0e 8fbe
00000190: 22ef 26bf 87a6 11bf 4838 bfbe cd28 12bf
000001a0: db64 9dbe 593d d8be 5f01 d6be 76ec 20bf
000001b0: dd7c 3ebf 230b 21bf ce76 94be 1227 efbe
000001c0: fd0c febe 95ad 0ebf 1a24 0ebf 62e1 47bf
000001d0: 0fbd 1dbf 492b 30bf 32b7 ccbe 9e12 47bf
000001e0: 511d 07bf 84ec 3ebe f936 1bbf 0216 85be
000001f0: c749 d8be 6b3c 18bf 1e8a b5be a55a c8be

bn3.running_mean f4 [128]
0.0 0.0 0.0 0.0 0.0 0.0 0.0 0.0
0.0 0.0 0.0 0.0 0.0 0.0 0.0 0.0
0.0 0.0 0.0 0.0 0.0 0.0 0.0 0.0
0.0 0.0 0.0 0.0 0.0 0.0 0.0 0.0
0.0 0.0 0.0 0.0 0.0 0.0 0.0 0.0
0.0 0.0 0.0 0.0 0.0 0.0 0.0 0.0
0.0 0.0 0.0 0.0 0.0 0.0 0.0 0.0
0.0 0.0 0.0 0.0 0.0 0.0 0.0 0.0
0.0 0.0 0.0 0.0 0.0 0.0 0.0 0.0
0.0 0.0 0.0 0.0 0.0 0.0 0.0 0.0
0.0 0.0 0.0 0.0 0.0 0.0 0.0 0.0
0.0 0.0 0.0 0.0 0.0 0.0 0.0 0.0
0.0 0.0 0.0 0.0 0.0 0.0 0.0 0.0
0.0 0.0 0.0 0.0 0.0 0.0 0.0 0.0
0.0 0.0 0.0 0.0 0.0 0.0 0.0 0.0
0.0 0.0 0.0 0.0 0.0 0.0 0.0 0.0
00000000: 0000 0000 0000 0000 0000 0000 0000 0000
00000010: 0000 0000 0000 0000 0000 0000 0000 0000
00000020: 0000 0000 0000 0000 0000 0000 0000 0000
00000030: 0000 0000 0000 0000 0000 0000 0000 0000
00000040: 0000 0000 0000 0000 0000 0000 0000 0000
00000050: 0000 0000 0000 0000 0000 0000 0000 0000
00000060: 0000 0000 0000 0000 0000 0000 0000 0000
00000070: 0000 0000 0000 0000 0000 0000 0000 0000
00000080: 0000 0000 0000 0000 0000 0000 0000 0000
00000090: 0000 0000 0000 0000 0000 0000 0000 0000
000000a0: 0000 0000 0000 0000 0000 0000 0000 0000
000000b0: 0000 0000 0000 0000 0000 0000 0000 0000
000000c0: 0000 0000 0000 0000 0000 0000 0000 0000
000000d0: 0000 0000 0000 0000 0000 0000 0000 0000
000000e0: 0000 0000 0000 0000 0000 0000 0000 0000
000000f0: 0000 0000 0000 0000 0000 0000 0000 0000
00000100: 0000 0000 0000 0000 0000 0000 0000 0000
00000110: 0000 0000 0000 0000 0000 0000 0000 0000
00000120: 0000 0000 0000 0000 0000 0000 0000 0000
00000130: 0000 0000 0000 0000 0000 0000 0000 0000
00000140: 0000 0000 0000 0000 0000 0000 0000 0000
00000150: 0000 0000 0000 0000 0000 0000 0000 0000
00000160: 0000 0000 0000 0000 0000 0000 0000 0000
00000170: 0000 0000 0000 0000 0000 0000 0000 0000
00000180: 0000 0000 0000 0000 0000 0000 0000 0000
00000190: 0000 0000 0000 0000 0000 0000 0000 0000
000001a0: 0000 0000 0000 0000 0000 0000 0000 0000
000001b0: 0000 0000 0000 0000 0000 0000 0000 0000
000001c0: 0000 0000 0000 0000 0000 0000 0000 0000
000001d0: 0000 0000 0000 0000 0000 0000 0000 0000
000001e0: 0000 0000 0000 0000 0000 0000 0000 0000
000001f0: 0000 0000 0000 0000 0000 0000 0000 0000

bn3.running_var f4 [128]
1.0 1.0 1.0 1.0 1.0 1.0 1.0 1.0
1.0 1.0 1.0 1.0 1.0 1.0 1.0 1.0
1.0 1.0 1.0 1.0 1.0 1.0 1.0 1.0
1.0 1.0 1.0 1.0 1.0 1.0 1.0 1.0
1.0 1.0 1.0 1.0 1.0 1.0 1.0 1.0
1.0 1.0 1.0 1.0 1.0 1.0 1.0 1.0
1.0 1.0 1.0 1.0 1.0 1.0 1.0 1.0
1.0 1.0 1.0 1.0 1.0 1.0 1.0 1.0
1.0 1.0 1.0 1.0 1.0 1.0 1.0 1.0
1.0 1.0 1.0 1.0 1.0 1.0 1.0 1.0
1.0 1.0 1.0 1.0 1.0 1.0 1.0 1.0
1.0 1.0 1.0 1.0 1.0 1.0 1.0 1.0
1.0 1.0 1.0 1.0 1.0 1.0 1.0 1.0
1.0 1.0 1.0 1.0 1.0 1.0 1.0 1.0
1.0 1.0 1.0 1.0 1.0 1.0 1.0 1.0
1.0 1.0 1.0 1.0 1.0 1.0 1.0 1.0
00000000: 0000 803f 0000 803f 0000 803f 0000 803f
00000010: 0000 803f 0000 803f 0000 803f 0000 803f
00000020: 0000 803f 0000 803f 0000 803f 0000 803f
00000030: 0000 803f 0000 803f 0000 803f 0000 803f
00000040: 0000 803f 0000 803f 0000 803f 0000 803f
00000050: 0000 803f 0000 803f 0000 803f 0000 803f
00000060: 0000 803f 0000 803f 0000 803f 0000 803f
00000070: 0000 803f 0000 803f 0000 803f 0000 803f
00000080: 0000 803f 0000 803f 0000 803f 0000 803f
00000090: 0000 803f 0000 803f 0000 803f 0000 803f
000000a0: 0000 803f 0000 803f 0000 803f 0000 803f
000000b0: 0000 803f 0000 803f 0000 803f 0000 803f
000000c0: 0000 803f 0000 803f 0000 803f 0000 803f
000000d0: 0000 803f 0000 803f 0000 803f 0000 803f
000000e0: 0000 803f 0000 803f 0000 803f 0000 803f
000000f0: 0000 803f 0000 803f 0000 803f 0000 803f
00000100: 0000 803f 0000 803f 0000 803f 0000 803f
00000110: 0000 803f 0000 803f 0000 803f 0000 803f
00000120: 0000 803f 0000 803f 0000 803f 0000 803f
00000130: 0000 803f 0000 803f 0000 803f 0000 803f
00000140: 0000 803f 0000 803f 0000 803f 0000 803f
00000150: 0000 803f 0000 803f 0000 803f 0000 803f
00000160: 0000 803f 0000 803f 0000 803f 0000 803f
00000170: 0000 803f 0000 803f 0000 803f 0000 803f
00000180: 0000 803f 0000 803f 0000 803f 0000 803f
00000190: 0000 803f 0000 803f 0000 803f 0000 803f
000001a0: 0000 803f 0000 803f 0000 803f 0000 803f
000001b0: 0000 803f 0000 803f 0000 803f 0000 803f
000001c0: 0000 803f 0000 803f 0000 803f 0000 803f
000001d0: 0000 803f 0000 803f 0000 803f 0000 803f
000001e0: 0000 803f 0000 803f 0000 803f 0000 803f
000001f0: 0000 803f 0000 803f 0000 803f 0000 803f

fc1.weight f4 [64, 1152]
-0.15018594 -0.23430806 -0.20073721 -0.23937468 -0.051088028 -0.25074673 -0.24299118 -0.25548145
0.31187993 -0.061309066 0.037870537 -0.05334411 0.08270026 -0.10067908 0.32574952 -0.0519818
0.18381141 0.23023501 0.28807294 -0.1282091 -0.012588973 -0.13758966 0.44400278 -0.16837119
-0.053877033 0.07521296 -0.04722974 0.086455815 0.19143303 -0.039713643 -0.0011604764 -0.101040386
0.1663201 -0.2222827 -0.053815503 0.087818116 -0.041197434 0.05330558 0.26187572 0.20454748
-0.06153757 0.045704134 -0.03614654 0.30473912 0.067683205 -0.43779913 0.18776412 0.013595675
-0.032176245 0.24285524 0.09499108 -0.20094764 0.066291876 -0.07786022 0.080746025 -0.010236501
-0.44313592 0.020969555 0.035621434 0.1095869 0.08007894 0.26733294 -0.2968851 -0.020074071
0.115620926 -0.04450021 -0.26563025 -0.054316044 0.035082694 0.17801836 0.3389176 -0.04249758
0.30234116 -0.10880095 0.18772161 0.025370795 0.38951907 -0.11509674 0.03174333 0.026594196
-0.3686213 0.15716864 -0.054170836 -0.41302288 -0.008876317 0.25942805 0.071228325 -0.05880263
0.16050301 0.18580514 0.17216474 0.14750321 0.010213699 -0.16352504 -0.2996997 -0.18154919
-0.15172233 0.22147256 -0.031305604 -0.14503196 0.045634426 -0.052972563 0.21219595 0.13253976
-0.036213733 -0.11732144 0.44847625 -0.38607052 -0.14884125 -0.2419377 -0.28429222 -0.1986404
0.03637178 -0.24133301 0.27854064 0.19696191 -0.019304791 0.106610104 -0.16482753 -0.067415744
0.0931436 -0.054902256 0.06090904 0.33713764 0.092861295 0.1233112 -0.022458691 0.0870638
0.09526748 0.19111405 0.34304386 0.15515761 0.22893812 -0.14672096 -0.018131264 -0.19726309
-0.22621125 -0.06884914 -0.26189685 -0.15302354 -0.084875055 0.27922434 -0.22341691 -0.33810243
-0.24680762 -0.18107827 0.28494757 0.026682613 -0.21613416 0.05261923 0.010826546 0.03600334
-0.09744746 0.20684786 0.4612851 -0.0859173 -0.14588764 0.19561297 -0.3774247 0.20100299
0.09790483 0.15092139 -0.35093206 -0.26385483 -0.26761904 -0.13882393 -0.007571849 -0.4024824
-0.21704088 0.1230115 -0.23428059 -0.07592468 -0.1638108 0.16305904 -0.01089987 0.28192148
-0.04918607 0.2832643 0.32777166 0.14982043 0.35139814 -0.20569253 0.11805212 0.09094306
0.0076447697 0.14843412 0.07143373 -0.39733154 -0.08996627 -0.00021396593 0.14555389 -0.055852722
-0.16104257 0.049614996 -0.065329425 -0.030658945 -0.11117514 -0.10452645 -0.31113538 -0.08597194
0.2279715 -0.07561477 0.017717637 -0.22180676 0.16230327 -0.2351629 0.19643717 -0.099354915
0.027824907 0.07877166 0.098378964 0.15768696 -0.00029345066 0.06395008 0.33041054 -0.2807479
0.008494332 0.028388498 -0.16423607 -0.06581935 -0.34500843 -0.036352187 -0.13055162 0.040958997
0.13877201 0.006585493 0.41061258 0.118601516 0.001299712 0.35569382 0.07784538 -0.038015928
-0.11538741 0.13733801 -0.18583827 -0.027941657 -0.3036168 0.18126032 -0.27908292 0.1437395
0.2500256 -0.08337585 -0.01917581 -0.2211328 0.018869786 -0.08576815 -0.15191437 0.17176542
-0.056170095 -0.29304922 -0.26831907 -0.1696164 0.37018573 -0.24054606 -0.18275584 -0.20124236
00000000: 58ca 19be 74ee 6fbe 0e8e 4dbe a31e 75be
00000010: ae41 51bd e061 80be aed2 78be 77ce 82be
00000020: baae 9f3e 371f 7bbd 231e 1b3d 5a7f 5abd
00000030: c15e a93d d530 cebd a4c8 a63e deea 54bd
00000040: 0f39 3c3e bac2 6b3e 4c7e 933e 3f49 03be
00000050: fb41 4ebc 4ee4 0cbe 5554 e33e 7f69 2cbe
00000060: 2aae 5cbd 4109 9a3d f973 41bd bf0f b13d
00000070: 0507 443e c6aa 22bd 201b 98ba 43ee cebd
00000080: d14f 2a3e 139e 63be a56d 5cbd fcd9 b33d
00000090: a4be 28bd f456 5a3d 9314 863e e574 513e
000000a0: d20e 7cbd 4234 3b3d 650e 14bd c406 9c3e
000000b0: 7e9d 8a3d 3527 e0be 3d45 403e 65c0 5e3c
000000c0: 3dcb 03bd 0baf 783e af8a c23d 38c5 4dbe
000000d0: 09c4 873d 2e75 9fbd 2c5e a53d ffb6 27bc
000000e0: b6e2 e2be 58c8 ab3c c8e7 113d 196f e03d
000000f0: 6d00 a43d dddf 883e 5301 98be 6172 a4bc
00000100: aaca ec3d da45 36bd b000 88be 807a 5ebd
00000110: dfb2 0f3d 724a 363e 9c86 ad3e f111 2ebd
00000120: 76cc 9a3e 08d3 debd 183a 403e 6ad6 cf3c
00000130: 0b6f c73e d7b7 ebbd 4b05 023d 12dc d93c
00000140: eebb bcbe d1f0 203e 3de2 5dbd bc77 d3be
00000150: f96d 11bc c1d3 843e 28e0 913d 07db 70bd
00000160: e75a 243e b443 3e3e f44b 303e 150b 173e
00000170: 5c57 273c 1c73 27be 3d72 99be 08e8 39be
00000180: 195d 1bbe b4c9 623e 4e3a 00bd 4283 14be
00000190: 2aeb 3a3d c2f9 58bd e549 593e 81b8 073e
000001a0: da54 14bd 3946 f0bd ae9e e53e 09ab c5be
000001b0: d769 18be 84be 77be c08e 91be 6468 4bbe
000001c0: 93fa 143d 0020 77be e19c 8e3e 62b0 493e
000001d0: 1525 9ebc 6656 da3d 8cc8 28be 4411 8abd
000001e0: 12c2 be3d 30e1 60bd c27b 793d 4e9d ac3e
000001f0: 102e be3d 958a fc3d 4afb b7bc 814e b23d
00000200: 991b c33d 67b3 433e 72a3 af3e a3e1 1e3e
00000210: c16e 6a3e 053e 16be 0488 94bc 56ff 49be
00000220: eca3 67be c700 8dbd 5817 86be 34b2 1cbe
00000230: f9d2 adbd 7ef6 8e3e 67c7 64be c31b adbe
00000240: 23bb 7cbe 956c 39be a6e4 913e 7f95 da3c
00000250: 4652 5dbe 4387 573d d361 313c 3d78 133d
00000260: 8992 c7bd edcf 533e 902d ec3e 69f5 afbd
00000270: 9263 15be c44e 483e cf3d c1be bad3 4d3e
00000280: 5482 c83d 238b 1a3e 5ead b3be fb17 87be
00000290: 5d05 89be dc27 0ebe 461d f8bb 2c12 cebe
000002a0: f73f 5ebe 74ed fb3d 40e7 6fbe 667e 9bbd
000002b0: 05be 27be f3f8 263e 5e95 32bc 0358 903e
000002c0: 5577 49bd 0508 913e b0d1 a73e 876a 193e
000002d0: 75ea b33e 10a1 52be 4fc5 f13d 5b40 ba3d
000002e0: fa80 fa3b 1dff 173e d94b 923d 0a6f cbbe
000002f0: 3c40 b8bd 0b5c 60b9 140c 153e d3c5 64bd
00000300: 58e8 24be 1839 4b3d 6fcb 85bd 7828 fbbc
00000310: cbaf e3bd f711 d6bd 234d 9fbe 0e12 b0bd
00000320: 5c71 693e ebdb 9abd 9424 913c 5021 63be
00000330: d432 263e 8bce 70be d326 493e 977a cbbd
00000340: 0ff1 e33c 0953 a13d e97a c93d b178 213e
00000350: 48da 99b9 42f8 823d 922b a93e 30be 8fbe
00000360: d02b 0b3c ff8e e83c 802d 28be 4ccc 86bd
00000370: f2a4 b0be 08e6 14bd 53af 05be 9fc4 273d
00000380: 401a 0e3e 1fcb d73b d03b d23e 5ae5 f23d
00000390: 195b aa3a 801d b63e 666d 9f3d 97b6 1bbd
000003a0: 3c50 ecbd 56a2 0c3e 634c 3ebe e7e5 e4bc
000003b0: a973 9bbe 4e9c 393e f5e3 8ebe 7330 133e
000003c0: 5b03 803e f5c0 aabd 9716 9dbc a370 62be
000003d0: cf94 9a3c 36a7 afbd 718f 1bbe 46e3 2f3e
000003e0: 9d12 66bd 8c0a 96be 1e61 89be ecaf 2dbe
000003f0: fc88 bd3e b551 76be 5924 3bbe 7a12 4ebe

fc1.bias f4 [64]
0.15180537 -0.09292826 0.14964685 0.14579701 -0.019197104 -0.009471288 0.09322813 0.19658779
0.13046631 0.03960479 -0.27396563 -0.13630277 0.018503487 -0.18334259 0.052458547 0.17476828
-0.10751251 0.053363953 -0.035871685 0.01739501 0.23671986 -0.014400838 0.06603029 0.04295264
-0.17647383 0.114030056 0.20869888 0.08411913 -0.09841223 -0.022778025 -0.16082351 0.06901474
-0.110559426 0.07175989 -0.013485314 -0.16242754 -0.04018375 0.019799706 0.12348223 -0.07536624
0.20319441 0.111080416 0.23018672 -0.006001439 -0.27200893 -0.0797565 -0.09150842 -0.13384768
0.2915411 -0.11836444 0.05635452 -0.20255032 -0.062047135 0.1313375 -0.15800026 0.0488176
-0.12083652 0.013132146 0.072256975 -0.09249153 -0.05439486 -0.025342004 0.119471386 -0.033164468
00000000: de72 1b3e 2c51 bebd 063d 193e d04b 153e
00000010: 3f43 9dbc 762d 1bbc 64ee be3d 4f4e 493e
00000020: f698 053e a238 223d 3945 8cbe f492 0bbe
00000030: a094 973c 29be 3bbe c6de 563d 75f6 323e
00000040: 852f dcbd 2994 5a3d 30ee 12bd fb7f 8e3c
00000050: b166 723e 7ef1 6bbc e43a 873d 1cef 2f3d
00000060: 8eb5 34be 9788 e93d 29b5 553e a746 ac3d
00000070: 5a8c c9bd fb98 babc ebae 24be 9a57 8d3d
00000080: fb6c e2bd d9f6 923d 82f1 5cbc 6853 26be
00000090: b797 24bd fe32 a23c 40e4 fc3d 9e59 9abd
000000a0: 3212 503e 217e e33d 11b6 6b3e b8a7 c4bb
000000b0: c144 8bbe 6057 a3bd c468 bbbd 5e0f 09be
000000c0: e044 953e 0e69 f2bd ffd3 663d 5a69 4fbe
000000d0: 2325 7ebd 567d 063e d2ca 21be f7f4 473d
000000e0: 2379 f7bd 3628 573c 77fb 933d 336c bdbd
000000f0: 25cd 5ebd 099a cfbc 6aad f43d 77d7 07bd
