evolved_e07b44a0-30c5-44c1-9673-1f162064044b_Best_73.pth (torch, 679612 bytes, 22 tensors)

conv1.weight f4 [32, 1, 3, 3]
0	0x3e936c34	0.2879349
1	0xbe5d1afc	-0.21592325
2	0xbdc66f04	-0.09689143
3	0x3f2a9cdc	0.666456
4	0xbf0b3682	-0.5438005
5	0xbd918a21	-0.07106424
6	0x3e54bfc8	0.20776284
7	0xbd89cf49	-0.0672899
8	0x3c6eda3a	0.014578396
9	0x3e95a809	0.29229763
10	0x3d8985b9	0.06714959
11	0xbdcc6f98	-0.09982222
12	0x3dc99014	0.09841934
13	0xbe6df60e	-0.23238394
14	0xbe209392	-0.15681294
15	0x3e81b80d	0.25335732
16	0xbef8b148	-0.48572755
17	0xbdb90233	-0.090336226
18	0x3ecd1fe9	0.40063408
19	0x3db883af	0.09009492
20	0xbd4d28df	-0.050087806
21	0x3d8c1c2c	0.06841311
22	0xbe449c09	-0.19200148
23	0x3e2c4225	0.16822107
24	0xbe3d0e63	-0.1846252
25	0xbee7a54d	-0.45243302
26	0xbddfd644	-0.1092954
27	0x3eb8ebb6	0.36117333
28	0xbd095ee7	-0.03353777
29	0xbce2151e	-0.02759796
30	0x3e2adf91	0.16686846
31	0xbf1d6503	-0.61482257
32	0x3e7709ea	0.24124876
33	0x3da908eb	0.08253654
34	0xbe94ad4c	-0.29038465
35	0x3d1b3316	0.037890516
36	0xbecd22e3	-0.4006568
37	0x3f02167a	0.50815547
38	0xbddb1ce1	-0.106988676
39	0xbe98d74b	-0.29851755
40	0x3eade2c0	0.3396206
41	0xbd8f7512	-0.07004751
42	0xbf0d516d	-0.5520237
43	0x3e4ce5e3	0.2000957
44	0xbd7be0f4	-0.06149383
45	0x3ebc6108	0.3679278
46	0x3e658b85	0.22416504
47	0xbed4dac0	-0.41573143
48	0xbe62f907	-0.22165309
49	0x3e9c39e5	0.3051292
50	0xbeb69944	-0.35663807
51	0xbb46e1c7	-0.0030346976
52	0x3ea106ee	0.314506
53	0xbe7643c8	-0.24049294
54	0x3d28deb4	0.04122801
55	0xbede194d	-0.43378678
56	0x3f13b09b	0.57691354
57	0xbd2bb443	-0.041919958
58	0x3e8ed118	0.278939
59	0xbecbda19	-0.39814833
60	0xbe71a833	-0.23599319
61	0x3e075ff1	0.13220192
62	0xbef35e21	-0.47532752
63	0xbdba0dd5	-0.090846695
64	0x3e65663d	0.22402282
65	0xbdff9f35	-0.12481538
66	0xbecef6e0	-0.40422726
67	0x3c0c4c60	0.008563131
68	0x3f09a5c6	0.53768575
69	0xbf36c773	-0.71398085
70	0xbe94dc06	-0.29074115
71	0x3e531cdb	0.20616476
72	0xbc6159d7	-0.01375433
73	0xbd474c86	-0.048656963
74	0xbf132c45	-0.57489425
75	0x3e937848	0.28802705
76	0x3f125004	0.57153344
77	0x3e6d038f	0.23145889
78	0xbe5cb461	-0.21553184
79	0x3e1de91b	0.15420954
80	0x3e317d4d	0.17332955
81	0xbdd04d47	-0.101709895
82	0x3dccf122	0.1000693
83	0x3e8e871a	0.2783745
84	0x3e912847	0.28351042
85	0x3f19565d	0.59897405
86	0x3d35b68a	0.044363536
87	0xbd14c83c	-0.03632377
88	0xbe0719f1	-0.1319349
89	0xbecc28a5	-0.3987476
90	0x3f0c39da	0.54775774
91	0xbe246b42	-0.1605654
92	0xbe3df3d3	-0.18550043
93	0x3e754f90	0.23956132
94	0xbea0f188	-0.31434274
95	0xbf0a6781	-0.54064184
96	0xbd96ba34	-0.07359734
97	0xbe67e4aa	-0.22645822
98	0x3d16eac9	0.036845002
99	0x3e1b444c	0.15162772
100	0x3e88fb18	0.2675407
101	0x3de1c16c	0.110232204
102	0x3e08198f	0.13291
103	0x3f2ed58a	0.68294585
104	0x3e7bc61b	0.2458729
105	0xbe038d44	-0.12846857
106	0xbc452ade	-0.012034146
107	0xbe5ae4ab	-0.21376292
108	0x3e789bc5	0.24278171
109	0x3e273e62	0.16332391
110	0xbea79501	-0.32730868
111	0x3d225cff	0.03963947
112	0x3ef1484c	0.4712547
113	0x3e7efda4	0.24901444
114	0xbd9c922e	-0.07645069
115	0xbd04847a	-0.032352902
116	0xbd1d67ea	-0.03842918
117	0xbe93b51e	-0.2884912
118	0xbe5f9d1d	-0.21837278
119	0xbc8746c9	-0.016513245
120	0xbd310a91	-0.043222968
121	0x3f5a24a5	0.85212165
122	0x3e98e24d	0.29860154
123	0x3d6cbabf	0.057795282
124	0xbd98ce11	-0.07461179
125	0xbea24a51	-0.31697324
126	0x3e079f82	0.13244441
127	0xbea43e42	-0.3207875
128	0x3cb91cd8	0.022596762
129	0xbe00db57	-0.12583672
130	0xbf1a6c65	-0.60321647
131	0x3ad22a11	0.0016034265
132	0x3efc35e2	0.4925986
133	0x3e93b67f	0.2885017
134	0xbe1b04a5	-0.1513849
135	0x3e7f225b	0.2491545
136	0x3e197cb3	0.14988975
137	0xbe0a3a91	-0.13498904
138	0x3da1e137	0.079042844
139	0xbf0c227e	-0.5474013
140	0x3eb439ae	0.35200256
141	0xbde8142a	-0.11331971
142	0xbd540171	-0.051759187
143	0x3f02fa78	0.51163435
144	0x3e871ba9	0.2638829
145	0x3eb0ad23	0.34507093
146	0x3d67707a	0.05650375
147	0xbeb35da5	-0.35032383
148	0x3dd6f929	0.10496742
149	0xbe3d76ac	-0.18502301
150	0x3e8a59ba	0.2702158
151	0xbe250551	-0.1611531
152	0xbea41c8e	-0.32053035
153	0xbe85dc54	-0.2614466
154	0xbdf8c89b	-0.121476375
155	0x3e759753	0.23983507
156	0x3e21067c	0.1572513
157	0xbd48b787	-0.04900315
158	0x3e8b7048	0.272341
159	0xbe2964da	-0.16542378
160	0xbe678620	-0.22609758
161	0xbe783cf8	-0.24242008
162	0x3e3588b5	0.17727931
163	0x3e6181df	0.22022198
164	0xbd967366	-0.07346229
165	0xbe884f9e	-0.26623243
166	0xbe2fdcd8	-0.17174089
167	0x3ca2ecf4	0.019888379
168	0xbd6b5ae4	-0.057459727
169	0xbd4ec571	-0.050481264
170	0xbe90ffd8	-0.28320193
171	0xbe0afd71	-0.13573243
172	0x3d47d55a	0.048787452
173	0x3ea69c11	0.32540944
174	0xbdaa9057	-0.08328312
175	0xbe54c5a0	-0.20778513
176	0xbd1c9dee	-0.03823655
177	0xbf06d4c4	-0.52668405
178	0x3db21819	0.086960025
179	0x3e81fcc0	0.25388145
180	0xbed042c8	-0.4067595
181	0xbdcaf54c	-0.09910068
182	0x3e38dfca	0.18054119
183	0xbe7267e1	-0.23672439
184	0x3d3d79b8	0.04625866
185	0xbe251d18	-0.1612438
186	0xbe223c7c	-0.15843385
187	0xbe949a0a	-0.29023772
188	0x3e68362e	0.22676918
189	0xbee2fe95	-0.44334856
190	0xbe611dc7	-0.21984015
191	0x3ecc4628	0.39897275
192	0xbed1ad8d	-0.4095272
193	0x3f0b8545	0.5450023
194	0x3e3c903e	0.18414399
195	0x3d10c68d	0.035345603
196	0x3e1a0404	0.15040594
197	0x3d5c9d08	0.053860694
198	0xbf24568b	-0.64194554
199	0xbeb82030	-0.35962057
200	0xbe18ac37	-0.14909445
201	0x3ca17d1d	0.019712979
202	0x3d8133d8	0.063087165
203	0xbe8464c9	-0.25858143
204	0x3e114360	0.14185858
205	0x3eb3db65	0.35128322
206	0x3ed47295	0.4149367
207	0xbf1e5fac	-0.61864734
208	0xbedbb95a	-0.4291485
209	0x3e03b768	0.12862933
210	0x3dc8d542	0.09806301
211	0xbdb84b37	-0.08998721
212	0x3e7d13ba	0.24714556
213	0x3d797b31	0.0609085
214	0x3dc96d3a	0.098352864
215	0xbf09a92d	-0.53773767
216	0x3e8410de	0.2579412
217	0x3d4b8085	0.049683113
218	0x3ea6577d	0.32488623
219	0x3e36516d	0.17804499
220	0x3e5166e0	0.204494
221	0xbea087c5	-0.31353584
222	0x3d30797f	0.043084618
223	0xbde2d1c1	-0.11075164
224	0xbe0a673c	-0.13515943
225	0xbe9e9bc1	-0.30978206
226	0x3d6daf48	0.05802849
227	0xbd835767	-0.06413155
228	0xbe84e4e6	-0.25955886
229	0xbe46f6df	-0.19430111
230	0xbecc6659	-0.39921835
231	0x3e154d85	0.14580353
232	0xbefbbebc	-0.49168956
233	0xbeb2ac7b	-0.34897217
234	0xbe10cb17	-0.14139973
235	0xbed6e4ed	-0.41971532
236	0xbc754255	-0.014969428
237	0x3d2ef29c	0.04271184
238	0x3d9b74b2	0.07590617
239	0x3e37f659	0.17965068
240	0xbea225f0	-0.3166957
241	0x3e1cf774	0.15328771
242	0x3f2854e8	0.65754557
243	0xbe0a684c	-0.13516349
244	0xbd0833b6	-0.03325244
245	0x3ef87c05	0.4853212
246	0xbed98b45	-0.42489067
247	0xbdaeea6f	-0.085408084
248	0x3edd2307	0.43190786
249	0xbe68f42d	-0.22749396
250	0xbe6a1281	-0.22858621
251	0x3e895f02	0.26830298
252	0xbc83bef3	-0.016082263
253	0xbdf1378d	-0.117781736
254	0x3e331430	0.1748817
255	0x3dbd859d	0.09254

conv1.bias f4 [32]
0	0x3d0de728	0.034644276
1	0x3e0002f0	0.1250112
2	0x3e6dff16	0.23241839
3	0xbcf188a8	-0.029484108
4	0x3e5ba69c	0.21450275
5	0x3d47c28b	0.048769515
6	0xbe979250	-0.29603815
7	0xbed77002	-0.42077643
8	0xbe138aac	-0.14408368
9	0xbe86b428	-0.26309323
10	0x3e3706c2	0.17873672
11	0xbe56dc7d	-0.20982547
12	0xbe9f53b0	-0.31118536
13	0xbe1dce27	-0.15410672
14	0x3d47884b	0.048713963
15	0xbebdea17	-0.3709266
16	0xbe7c93f9	-0.24665822
17	0x3efd3728	0.49456143
18	0x3d8ac86c	0.06776509
19	0x3e1b05ea	0.15138975
20	0xbd289018	-0.041153044
21	0x3e1005d9	0.1406473
22	0x3efa88aa	0.4893239
23	0x3d239b55	0.039943058
24	0x3c63ce97	0.013904235
25	0x3c3333cf	0.010937645
26	0xbd2f53b1	-0.042804424
27	0x3e9f4b80	0.3111229
28	0x3e4a2233	0.19739608
29	0x3d850076	0.064942285
30	0x3da7e427	0.081978135
31	0x3d6c0650	0.057623208

bn1.weight f4 [32]
0	0x3fbf1b5b	1.4930223
1	0x3f28f768	0.6600251
2	0x3f60d2af	0.8782148
3	0x3f80be62	1.00581
4	0x3f5cc10b	0.8623206
5	0x3f4dfb3f	0.80461496
6	0x3f7074ef	0.93928427
7	0x3f62a801	0.88537604
8	0x3f9590cd	1.1684815
9	0x3f7c4533	0.9854309
10	0x3f9c3e17	1.2206448
11	0x3f4848ee	0.7823628
12	0x3f59503c	0.8488805
13	0x3f59f783	0.851433
14	0x3f5f008b	0.87110204
15	0x3f82e01b	1.0224642
16	0x3f5d0339	0.8633304
17	0x3f60773f	0.87681955
18	0x3f69736b	0.9119174
19	0x3f85ddf3	1.0458359
20	0x3f7cd9b5	0.98769695
21	0x3f7a9d84	0.978966
22	0x3f97caa4	1.1858716
23	0x3f23b454	0.63947034
24	0x3f5f0555	0.8711751
25	0x3f5c5fb1	0.86083513
26	0x3f71300c	0.9421394
27	0x3f309fac	0.6899364
28	0x3f6239eb	0.88369626
29	0x3f8f2f3d	1.1186291
30	0x3f87389d	1.0564152
31	0x3f758c1b	0.9591691

bn1.bias f4 [32]
0	0x3da97d7e	0.08275889
1	0xbe63228d	-0.22181149
2	0xbeb62572	-0.35575444
3	0xbc919d58	-0.017775223
4	0x3e585878	0.21127498
5	0x3e9f026c	0.31056535
6	0xbe7d795e	-0.24753329
7	0x3e6a797f	0.2289791
8	0xbdbf0b01	-0.09328271
9	0xbed5b45a	-0.4173916
10	0x3ea22f61	0.31676772
11	0xbf168685	-0.5879901
12	0xbf5290f8	-0.82252455
13	0xbe1f0be9	-0.15531887
14	0xbe1c44c7	-0.15260611
15	0xbd0db4c3	-0.034596216
16	0xbdb8bcf3	-0.09020414
17	0xbedd6ee1	-0.43248656
18	0x3c5dda71	0.01354085
19	0xbd12052b	-0.03564946
20	0xbf01f2a9	-0.50760895
21	0xbe603056	-0.21893439
22	0xbf33e3bc	-0.7026937
23	0xbef36cc5	-0.47543922
24	0xbd4ea44b	-0.05044965
25	0x3da929f3	0.08259954
26	0x3e5bbc07	0.21458445
27	0xbb93d957	-0.004511993
28	0xbd3978ca	-0.04528121
29	0x3e409a10	0.1880877
30	0x3d85970c	0.065229505
31	0xbf387d56	-0.7206625

bn1.running_mean f4 [32]
0	0x00000000	0.0
1	0x00000000	0.0
2	0x00000000	0.0
3	0x00000000	0.0
4	0x00000000	0.0
5	0x00000000	0.0
6	0x00000000	0.0
7	0x00000000	0.0
8	0x00000000	0.0
9	0x00000000	0.0
10	0x00000000	0.0
11	0x00000000	0.0
12	0x00000000	0.0
13	0x00000000	0.0
14	0x00000000	0.0
15	0x00000000	0.0
16	0x00000000	0.0
17	0x00000000	0.0
18	0x00000000	0.0
19	0x00000000	0.0
20	0x00000000	0.0
21	0x00000000	0.0
22	0x00000000	0.0
23	0x00000000	0.0
24	0x00000000	0.0
25	0x00000000	0.0
26	0x00000000	0.0
27	0x00000000	0.0
28	0x00000000	0.0
29	0x00000000	0.0
30	0x00000000	0.0
31	0x00000000	0.0

bn1.running_var f4 [32]
0	0x3f800000	1.0
1	0x3f800000	1.0
2	0x3f800000	1.0
3	0x3f800000	1.0
4	0x3f800000	1.0
5	0x3f800000	1.0
6	0x3f800000	1.0
7	0x3f800000	1.0
8	0x3f800000	1.0
9	0x3f800000	1.0
10	0x3f800000	1.0
11	0x3f800000	1.0
12	0x3f800000	1.0
13	0x3f800000	1.0
14	0x3f800000	1.0
15	0x3f800000	1.0
16	0x3f800000	1.0
17	0x3f800000	1.0
18	0x3f800000	1.0
19	0x3f800000	1.0
20	0x3f800000	1.0
21	0x3f800000	1.0
22	0x3f800000	1.0
23	0x3f800000	1.0
24	0x3f800000	1.0
25	0x3f800000	1.0
26	0x3f800000	1.0
27	0x3f800000	1.0
28	0x3f800000	1.0
29	0x3f800000	1.0
30	0x3f800000	1.0
31	0x3f800000	1.0

conv2.weight f4 [64, 32, 3, 3]
0	0x3d4588bb	0.0482261
1	0x3e97d104	0.29651654
2	0xbea7aa60	-0.32747173
3	0x3e826218	0.25465465
4	0x3e5ec384	0.21754271
5	0xbdc17038	-0.09445232
6	0x3e67f059	0.22650279
7	0x3e491849	0.1963817
8	0x3eb6f873	0.35736427
9	0x3d7829f4	0.060586885
10	0xbedc98b7	-0.43085262
11	0xbd6870dc	-0.056748256
12	0xbea0abe5	-0.31381145
13	0x3ea11d7d	0.3146781
14	0x3eca0f6e	0.39464897
15	0xbdea9c34	-0.11455575
16	0xbecb0e00	-0.3965912
17	0xbe80c58f	-0.25150725
18	0x3e189bbe	0.14903161
19	0xbe8485bf	-0.2588329
20	0x3df5050f	0.119638555
21	0x3dec79c0	0.115466595
22	0xbd9c193c	-0.076220006
23	0x3e8fcdba	0.28086644
24	0xbe3be712	-0.18349865
25	0x3c798d66	0.015231466
26	0x3d2ff5c6	0.042958997
27	0x3dde0ef4	0.10842696
28	0xbee21ca2	-0.4416247
29	0x3dcc86cc	0.09986648
30	0x3f05a65c	0.5220697
31	0x3e3bba76	0.18332848
32	0x3e0568c2	0.13028243
33	0x3e56f095	0.20990212
34	0xbd27af23	-0.040938508
35	0x3ebce022	0.3688975
36	0x3f0f58df	0.5599498
37	0x3e993d85	0.29929748
38	0x3d1fe923	0.039040696
39	0xbcf5da59	-0.030011343
40	0xbe7b102c	-0.24517888
41	0x3e431c4a	0.1905376
42	0x3e337af3	0.1752737
43	0x3dd16fdc	0.102264136
44	0xbd3ad247	-0.045610692
45	0x3e4cb4a4	0.19990784
46	0xbb132062	-0.0022449722
47	0xbe1a6208	-0.15076458
48	0x3d601920	0.05471146
49	0xbe8bec07	-0.27328512
50	0xbe743f9f	-0.23852395
51	0xbdbcac72	-0.09212579
52	0x3e5a5ea5	0.21325167
53	0xbe651280	-0.22370338
54	0xbd9e1973	-0.07719698
55	0x3df5459a	0.11976166
56	0x3d00289d	0.03128873
57	0xbd6109da	-0.054941036
58	0x3e2ed402	0.17073062
59	0x3e1e8038	0.15478599
60	0x3e77f6a7	0.24215184
61	0x3d6cffe5	0.057861228
62	0x3e4e0351	0.20118453
63	0x3e732156	0.23743185
64	0x3ed0ba64	0.40767205
65	0xbe281239	-0.16413201
66	0x3c90d068	0.0176775
67	0xbe00cfdf	-0.12579297
68	0xbd221815	-0.039573748
69	0xbd6c8fcf	-0.057754334
70	0xbe164c0e	-0.1467745
71	0x3e1ba74a	0.15200534
72	0xbe77c9df	-0.24198101
73	0xbe753f12	-0.2394984
74	0x3e73d3b6	0.2381123
75	0x3d6868cf	0.05674058
76	0x3e822171	0.2541614
77	0x3d812b99	0.06307144
78	0x3eef1979	0.46699122
79	0x3ecb0b20	0.39656925
80	0x3e2266d9	0.15859546
81	0x3d2c8365	0.042117495
82	0xbb4d1b63	-0.0031296841
83	0x3ea55ca3	0.3229724
84	0xbe11453e	-0.1418657
85	0xbd9cb35a	-0.07651396
86	0x3dd0dd0b	0.101984106
87	0xbdbf60f3	-0.093446635
88	0xbe95874c	-0.29204786
89	0xbd79bf8d	-0.060973693
90	0x3efecb36	0.49764413
91	0xbe50ebe5	-0.20402487
92	0xbe8cbf4f	-0.27489707
93	0xbe37b700	-0.17940903
94	0xbe86dcb6	-0.26340264
95	0xbdcb962c	-0.099407524
96	0xbedbe1e5	-0.4294578
97	0xbd9223ce	-0.071357355
98	0xbdfda6c7	-0.12385326
99	0xbda833af	-0.08212983
100	0xbee3a363	-0.44460592
101	0x3d145225	0.03621115
102	0x3ddc63fb	0.10761257
103	0xbe70c754	-0.23513538
104	0xbda17990	-0.07884514
105	0x3ec88136	0.3916108
106	0x3dc1c0be	0.09460591
107	0x3e3e0a91	0.18558718
108	0xbe730093	-0.23730688
109	0x3d2b351f	0.041798707
110	0xbda9893e	-0.0827813
111	0xbe1d0158	-0.15332544
112	0xbe6d98cf	-0.23202823
113	0x3e88437a	0.2661398
114	0x3ed24158	0.41065478
115	0xbd99cdab	-0.07509931
116	0x3d80c007	0.06286626
117	0x3d1091d7	0.035295334
118	0x3e55ca3c	0.20877928
119	0x3e9542d2	0.29152542
120	0xbe9d3bcf	-0.30709693
121	0x3ea7df9f	0.32787797
122	0xbe5ccc83	-0.2156239
123	0x3c29c529	0.010361948
124	0xbeaa0bab	-0.33212027
125	0xbe39f28b	-0.18158929
126	0xbec7e168	-0.3903916
127	0xbe2fd8f9	-0.17172612
128	0x3e85f098	0.2616012
129	0xbec4bdfb	-0.38426194
130	0xbd8fdb34	-0.070242316
131	0xbdc323a6	-0.09528284
132	0xbeb63c02	-0.35592657
133	0xbde24fc6	-0.11050372
134	0x3e97ddb6	0.2966134
135	0xbd2e9ee6	-0.042632006
136	0xbdbf39d0	-0.09337199
137	0x3e4af5b8	0.19820297
138	0x3e9f15a8	0.3107121
139	0xbe1c98ed	-0.15292712
140	0xbe17a11a	-0.14807549
141	0xbca4e70c	-0.020129703
142	0xbf0cd6ac	-0.55015063
143	0x3e87b8bb	0.26508126
144	0xbf096072	-0.5366279
145	0xbe3f787a	-0.18698302
146	0x3c8f94ee	0.01752707
147	0xbf236dce	-0.63839424
148	0xbe4cf1fc	-0.20014185
149	0xbd42ffef	-0.04760736
150	0xbea094f7	-0.3136365
151	0xbdcac1f2	-0.099002734
152	0x3e5a68ab	0.2132899
153	0x3ecd11f0	0.40052748
154	0x3e02a978	0.1275996
155	0x3d922c0b	0.07137307
156	0xbe652bca	-0.22379985
157	0xbe1577f4	-0.1459654
158	0x3e2d52d8	0.16926134
159	0x3eaef227	0.34169123
160	0xbf60ae07	-0.87765545
161	0x3dffe31f	0.12494492
162	0x3de9bacd	0.114125825
163	0x3f107124	0.5642264
164	0xbe4a6e4a	-0.19768634
165	0xbdb458de	-0.088060126
166	0x3ec49572	0.38395268
167	0x3e091adf	0.13389157
168	0xbf05f80a	-0.523316
169	0xbe9b8643	-0.3037587
170	0xbe9a2f1b	-0.30114064
171	0xbdb22265	-0.086979665
172	0xbe17a97a	-0.14810744
173	0xbdb364e5	-0.087594785
174	0xbe5a44b5	-0.21315272
175	0x3df400d0	0.119142175
176	0x3e3c4a5d	0.18387742
177	0xbf35f01a	-0.7106949
178	0xbe588efa	-0.21148291
179	0xbe2c34a5	-0.16816957
180	0x3e662e86	0.22478685
181	0x3ed59a91	0.41719487
182	0xbedf72db	-0.43642315
183	0x3e121044	0.14264017
184	0xbc996411	-0.018724473
185	0x3db0b6bd	0.086286046
186	0xbe3dd343	-0.18537621
187	0xbf151ca0	-0.58246803
188	0xbd77e957	-0.060525265
189	0x3eb5015f	0.3535261
190	0x3d2f2f77	0.042769875
191	0x3ee3431d	0.4438714
192	0x3e3df43c	0.185502
193	0xbda03f1d	-0.07824538
194	0xbe68d5d9	-0.22737826
195	0x3e8c87b8	0.27447295
196	0xbe4412cd	-0.19147797
197	0x3d9d73a7	0.076880746
198	0xbe9ed837	-0.31024334
199	0xbe03c8c2	-0.12869552
200	0x3e8d8927	0.276437
201	0x3e632125	0.22180612
202	0x3dc75e8c	0.0973483
203	0xbdd05207	-0.101718955
204	0x3e50c555	0.20387776
205	0x3dedd650	0.116131425
206	0xbed3732b	-0.41298804
207	0xbde16918	-0.11006373
208	0xbe8adf89	-0.2712367
209	0x3e175ddb	0.14781897
210	0xbe34e008	-0.17663586
211	0xbe054ba1	-0.13017131
212	0xbd91dcbd	-0.071221806
213	0xbe2a20f1	-0.16614129
214	0xbe030b28	-0.12797225
215	0x3da22ed6	0.079190895
216	0xbdc28064	-0.09497145
217	0xbe4d42ac	-0.20044965
218	0xbedb0666	-0.4277832
219	0xbe13cedf	-0.14434384
220	0x3d75f687	0.06004956
221	0x3d92bd7c	0.071650475
222	0x3e4d36eb	0.20040481
223	0x3da3636e	0.07977949
224	0x3db84230	0.08996999
225	0x3db5a985	0.08870224
226	0xbd642d89	-0.05570749
227	0x3e16c13d	0.14722152
228	0xbe2dccf9	-0.16972722
229	0xbe0c3074	-0.13690358
230	0x3eb517b5	0.3536965
231	0x3e890d4c	0.26767957
232	0xbe8a1c92	-0.26974922
233	0x3e999242	0.29994398
234	0xbe097750	-0.1342442
235	0x3e944189	0.2895625
236	0x3d91158e	0.07084189
237	0x3e2b76b2	0.16744497
238	0xbddd39dd	-0.10802052
239	0xbe14d341	-0.14533712
240	0xbe20932c	-0.15681142
241	0xbe55f910	-0.20895791
242	0x3eb53dcd	0.35398713
243	0x3e4a6526	0.19765148
244	0x3e69fcca	0.22850338
245	0x3e8472fb	0.25868973
246	0xbe1a1cde	-0.15050074
247	0xbd566a9e	-0.05234777
248	0xbea0cffe	-0.31408685
249	0xbd0ebdd7	-0.034849014
250	0xbe2954f5	-0.16536315
251	0xbd444793	-0.04791982
252	0xbd481cae	-0.048855476
253	0x3eb8cbd2	0.36093003
254	0xbdbe0cbc	-0.09279773
255	0x3dccf05d	0.10006783

conv2.bias f4 [64]
0	0x3dba5976	0.090990946
1	0xbde1bc95	-0.11022297
2	0xbd1e9d2f	-0.03872412
3	0x3e1aa3a6	0.1510149
4	0x3ca85718	0.020549342
5	0xbedf175e	-0.43572515
6	0x3eaaac1d	0.33334437
7	0x3e380af2	0.17972925
8	0xbdfb56bb	-0.12272402
9	0x39d42a68	0.00040467386
10	0xbc9647d2	-0.018344793
11	0x3dd31904	0.10307506
12	0xbc87a212	-0.016556773
13	0xbd98ab43	-0.074545406
14	0xbe7cb982	-0.2468014
15	0x3df1de7b	0.11810013
16	0xbd0ba0b1	-0.034088794
17	0x3eb15808	0.34637475
18	0xbd167eec	-0.036742136
19	0x3d6f7835	0.058464248
20	0xbeb779a4	-0.35834992
21	0x3dc50d08	0.09621626
22	0x3e002615	0.12514527
23	0x3e955a0c	0.29170263
24	0x3be8a097	0.007099222
25	0xbdd5fb8e	-0.10448371
26	0xbe16096d	-0.14652033
27	0x3e227dcd	0.15868302
28	0x3c8bc591	0.01706198
29	0xbd9cf2ae	-0.07663475
30	0xbd893587	-0.06699663
31	0x3d2259cf	0.03963643
32	0x3d14d435	0.03633519
33	0x3d67be9f	0.056578275
34	0x3d270ea6	0.040785454
35	0x3d76252f	0.060094055
36	0xbdd7f352	-0.105444565
37	0xbe0a7d07	-0.13524257
38	0xbe9eb5e1	-0.30998138
39	0x3e16d3b8	0.14729202
40	0x3e4d6b56	0.20060477
41	0x3d037bd7	0.032100525
42	0x3dd02004	0.101623565
43	0xbd72e4b3	-0.059300136
44	0x3d763473	0.060108613
45	0x3d32901d	0.04359447
46	0x3d7c6e0a	0.06162838
47	0xbdb4b825	-0.08824185
48	0xbd4b7ced	-0.049679685
49	0xbd67f230	-0.056627452
50	0xbe0b1db7	-0.13585554
51	0x3e46d2f5	0.19416411
52	0x3d006a15	0.031351168
53	0xbdfb1c11	-0.122612126
54	0x3e5da7e1	0.21646072
55	0x3c814b8e	0.015783098
56	0xbe84cbbc	-0.25936687
57	0xbd8725bf	-0.06598996
58	0xbdb5c479	-0.08875365
59	0xbe5a87cf	-0.2134087
60	0x3e31a426	0.17347774
61	0xbea67579	-0.325115
62	0x3eb1c4c1	0.34720424
63	0x3d4aaa84	0.049479023

bn2.weight f4 [64]
0	0x3f6e43c8	0.93072176
1	0x3f82b165	1.0210387
2	0x3f881216	1.0630519
3	0x3f588ec3	0.8459284
4	0x3f51d748	0.8196912
5	0x3f6958b8	0.91151
6	0x3f832b96	1.0247676
7	0x3fa49425	1.285771
8	0x3f3b915c	0.73268676
9	0x3f5b9d77	0.8578715
10	0x3f2a8316	0.6660627
11	0x3f2a795a	0.6659142
12	0x3f57328a	0.8406149
13	0x3f37a7ed	0.7174061
14	0x3f7d9551	0.99055964
15	0x3f32c8fd	0.69837934
16	0x3f710597	0.94149154
17	0x3f3193e7	0.69366306
18	0x3f6e8f07	0.9318699
19	0x3f4ff580	0.8123398
20	0x3f725a34	0.9466889
21	0x3f780c48	0.9689374
22	0x3f98afd6	1.1928661
23	0x3f0020bf	0.50049967
24	0x3f84e8f8	1.0383596
25	0x3f37ef86	0.7184986
26	0x3f490e28	0.78537226
27	0x3f44326c	0.7663944
28	0x3f3f0413	0.7461559
29	0x3f73825b	0.9512078
30	0x3f7cf003	0.9880373
31	0x3f6e6e14	0.93136716
32	0x3f7d261c	0.98886275
33	0x3f3c158f	0.73470396
34	0x3f82b986	1.0212867
35	0x3f8b0d27	1.0863389
36	0x3f8b2113	1.0869468
37	0x3f9459a7	1.158986
38	0x3f6a006f	0.9140691
39	0x3f7c42b2	0.9853927
40	0x3f8725b1	1.0558378
41	0x3f7b1f9b	0.980951
42	0x3f92ad3c	1.1459117
43	0x3f6481e9	0.8926073
44	0x3f67801f	0.9042987
45	0x3f6ea041	0.9321328
46	0x3f9df296	1.2339656
47	0x3f44242a	0.7661768
48	0x3f54ab1b	0.83073586
49	0x3f75a8d5	0.9596074
50	0x3f21572d	0.63023645
51	0x3f843630	1.0329037
52	0x3f985cda	1.1903336
53	0x3f5d5d02	0.86470044
54	0x3f7cdb89	0.98772484
55	0x3f88f6d0	1.0700321
56	0x3f78cd4a	0.97188246
57	0x3f9609a8	1.1721697
58	0x3f728f26	0.9474968
59	0x3f68c072	0.9091865
60	0x3f5b992c	0.85780597
61	0x3f7e075d	0.99229985
62	0x3f68a4b2	0.90876305
63	0x3f707754	0.9393208

bn2.bias f4 [64]
0	0xbef02f3a	-0.4691103
1	0xbece1303	-0.4024888
2	0xbf2065db	-0.6265542
3	0xbe7073c5	-0.23481663
4	0xbf11ea2f	-0.5699796
5	0xbf0459cb	-0.51699513
6	0xbf0a4d8f	-0.54024595
7	0xbf0abc7e	-0.54193866
8	0xbe176b43	-0.14787011
9	0xbe9f4876	-0.3110997
10	0xbe5fc9ea	-0.21854368
11	0xbf0d2149	-0.55128914
12	0xbf11c182	-0.56935894
13	0xbf0200e5	-0.50782615
14	0xbc99d02f	-0.018776027
15	0xbecf9ca7	-0.40549204
16	0xbe492d70	-0.1964624
17	0xbe586038	-0.21130455
18	0xbebb3b1e	-0.3656854
19	0xbeb9fa19	-0.36323622
20	0xbe3ad95d	-0.1824698
21	0xbf39a923	-0.7252371
22	0xbe5245f2	-0.20534495
23	0xbed04d7a	-0.4068411
24	0xbe997a8d	-0.2997631
25	0xbf05a4c3	-0.5220453
26	0xbf2f852d	-0.68562585
27	0xbe39a64e	-0.18129846
28	0xbeccb295	-0.39979997
29	0xbf269edb	-0.65086144
30	0xbf0c4ec1	-0.5480767
31	0xbf7452fe	-0.95439136
32	0xbf1f7814	-0.622926
33	0xbf317a33	-0.69327086
34	0xbeaa24eb	-0.3323129
35	0xbee58c24	-0.4483348
36	0xbebe5057	-0.3717067
37	0xbe6c6082	-0.2308369
38	0xbf0d5163	-0.5520231
39	0x3d8b05f7	0.06788247
40	0xbe915a51	-0.28389218
41	0xbeb51beb	-0.35372862
42	0xbe938beb	-0.28817686
43	0xbf4718d8	-0.77772284
44	0xbf0ff2a6	-0.5622963
45	0xbebd4695	-0.36967912
46	0xbf1e8921	-0.6192799
47	0xbec65d8b	-0.38743243
48	0xbf0e6743	-0.55626315
49	0xbe88f6a3	-0.2675067
50	0xbf011e0c	-0.5043647
51	0xbeba714d	-0.36414567
52	0xbf0a9b54	-0.5414326
53	0xbf35dbff	-0.7103881
54	0xbf664704	-0.8995211
55	0xbf18341f	-0.5945453
56	0xbefca6e3	-0.49346074
57	0xbde6ae2a	-0.11263688
58	0xbf13eaec	-0.5778034
59	0xbed0f952	-0.40815216
60	0xbea06c33	-0.3133255
61	0xbf137b17	-0.57609695
62	0xbf0c6953	-0.5484821
63	0xbe831bca	-0.2560714

bn2.running_mean f4 [64]
0	0x00000000	0.0
1	0x00000000	0.0
2	0x00000000	0.0
3	0x00000000	0.0
4	0x00000000	0.0
5	0x00000000	0.0
6	0x00000000	0.0
7	0x00000000	0.0
8	0x00000000	0.0
9	0x00000000	0.0
10	0x00000000	0.0
11	0x00000000	0.0
12	0x00000000	0.0
13	0x00000000	0.0
14	0x00000000	0.0
15	0x00000000	0.0
16	0x00000000	0.0
17	0x00000000	0.0
18	0x00000000	0.0
19	0x00000000	0.0
20	0x00000000	0.0
21	0x00000000	0.0
22	0x00000000	0.0
23	0x00000000	0.0
24	0x00000000	0.0
25	0x00000000	0.0
26	0x00000000	0.0
27	0x00000000	0.0
28	0x00000000	0.0
29	0x00000000	0.0
30	0x00000000	0.0
31	0x00000000	0.0
32	0x00000000	0.0
33	0x00000000	0.0
34	0x00000000	0.0
35	0x00000000	0.0
36	0x00000000	0.0
37	0x00000000	0.0
38	0x00000000	0.0
39	0x00000000	0.0
40	0x00000000	0.0
41	0x00000000	0.0
42	0x00000000	0.0
43	0x00000000	0.0
44	0x00000000	0.0
45	0x00000000	0.0
46	0x00000000	0.0
47	0x00000000	0.0
48	0x00000000	0.0
49	0x00000000	0.0
50	0x00000000	0.0
51	0x00000000	0.0
52	0x00000000	0.0
53	0x00000000	0.0
54	0x00000000	0.0
55	0x00000000	0.0
56	0x00000000	0.0
57	0x00000000	0.0
58	0x00000000	0.0
59	0x00000000	0.0
60	0x00000000	0.0
61	0x00000000	0.0
62	0x00000000	0.0
63	0x00000000	0.0

bn2.running_var f4 [64]
0	0x3f800000	1.0
1	0x3f800000	1.0
2	0x3f800000	1.0
3	0x3f800000	1.0
4	0x3f800000	1.0
5	0x3f800000	1.0
6	0x3f800000	1.0
7	0x3f800000	1.0
8	0x3f800000	1.0
9	0x3f800000	1.0
10	0x3f800000	1.0
11	0x3f800000	1.0
12	0x3f800000	1.0
13	0x3f800000	1.0
14	0x3f800000	1.0
15	0x3f800000	1.0
16	0x3f800000	1.0
17	0x3f800000	1.0
18	0x3f800000	1.0
19	0x3f800000	1.0
20	0x3f800000	1.0
21	0x3f800000	1.0
22	0x3f800000	1.0
23	0x3f800000	1.0
24	0x3f800000	1.0
25	0x3f800000	1.0
26	0x3f800000	1.0
27	0x3f800000	1.0
28	0x3f800000	1.0
29	0x3f800000	1.0
30	0x3f800000	1.0
31	0x3f800000	1.0
32	0x3f800000	1.0
33	0x3f800000	1.0
34	0x3f800000	1.0
35	0x3f800000	1.0
36	0x3f800000	1.0
37	0x3f800000	1.0
38	0x3f800000	1.0
39	0x3f800000	1.0
40	0x3f800000	1.0
41	0x3f800000	1.0
42	0x3f800000	1.0
43	0x3f800000	1.0
44	0x3f800000	1.0
45	0x3f800000	1.0
46	0x3f800000	1.0
47	0x3f800000	1.0
48	0x3f800000	1.0
49	0x3f800000	1.0
50	0x3f800000	1.0
51	0x3f800000	1.0
52	0x3f800000	1.0
53	0x3f800000	1.0
54	0x3f800000	1.0
55	0x3f800000	1.0
56	0x3f800000	1.0
57	0x3f800000	1.0
58	0x3f800000	1.0
59	0x3f800000	1.0
60	0x3f800000	1.0
61	0x3f800000	1.0
62	0x3f800000	1.0
63	0x3f800000	1.0

conv3.weight f4 [128, 64, 3, 3]
0	0xbc1808c9	-0.009279438
1	0x3e3a34aa	0.18184152
2	0xbdc3332e	-0.09531246
3	0xbeeca5b6	-0.46220177
4	0x3eee6150	0.4655862
5	0xbe81d43f	-0.25357243
6	0xbe932b19	-0.28743818
7	0x3f03b118	0.514421
8	0xbe4de4a3	-0.20106749
9	0xbe63bdec	-0.22240418
10	0x3df267b3	0.11836185
11	0xbe71bf63	-0.23608164
12	0x3e67d4a1	0.22639705
13	0xbe43e7bf	-0.19131373
14	0xbe22234d	-0.15833779
15	0x3d10efe6	0.035385035
16	0x3b9c3e9d	0.0047682063
17	0xbe852215	-0.26002565
18	0x3d50e48d	0.050999213
19	0xbc7c7804	-0.015409473
20	0xbcb70ea6	-0.022345852
21	0x3d14a32b	0.03628842
22	0xbdfa67a9	-0.12226803
23	0xbe7a35f0	-0.24434638
24	0xbcc5a817	-0.024128003
25	0xbc6bbc85	-0.014388208
26	0x3ebbde9b	0.36693272
27	0x3d344634	0.044012263
28	0x3e58180c	0.21102923
29	0xbf06f020	-0.5271015
30	0xbd06c4bd	-0.032902468
31	0x3e2cc27c	0.16871065
32	0xbea39463	-0.31949148
33	0x3ec75619	0.38932875
34	0x3d6c906d	0.057754923
35	0xbe8224e2	-0.25418764
36	0xbe7b19c4	-0.24521548
37	0x3de53670	0.11192024
38	0x3f00e30c	0.50346446
39	0xbe2042a3	-0.1565042
40	0xbe0faf4a	-0.14031711
41	0xbebd76c3	-0.3700467
42	0x3ddc115b	0.10745498
43	0xbe7ad7ad	-0.24496336
44	0xbedc0ea9	-0.42979935
45	0x3dfb51e6	0.1227148
46	0xbc01c79f	-0.0079211285
47	0xbeae0594	-0.3398863
48	0x3e673ccb	0.22581784
49	0x3dcffafa	0.10155292
50	0x3f136377	0.57573646
51	0x3dd19e25	0.10235242
52	0x3d083e5a	0.033262588
53	0x3ad43c79	0.0016192339
54	0xbdd6ed54	-0.104944855
55	0xbdb8fbd8	-0.090324104
56	0xbdcbf6e4	-0.099592
57	0xbe92f73a	-0.28704244
58	0x3e8b0d72	0.27158695
59	0xbe2ebd32	-0.1706436
60	0xbec1baff	-0.3783798
61	0xbe958c24	-0.2920848
62	0x3d3b516a	0.04573194
63	0x3e82d6c0	0.25554466
64	0xbebea422	-0.37234598
65	0x3ca411db	0.020028045
66	0xbdb278de	-0.0871446
67	0xbe25be86	-0.1618596
68	0x3e4da861	0.20083763
69	0xbe8da3a6	-0.27663916
70	0x3e199685	0.14998825
71	0xbd50340c	-0.050830886
72	0xbcd02304	-0.025407322
73	0x3e7269a8	0.23673117
74	0xbd9e9baf	-0.07744538
75	0x3dba8bd5	0.09108702
76	0xbde35852	-0.1110083
77	0xbec5ae26	-0.38609427
78	0xbda1c0c1	-0.07898093
79	0xbe898ce5	-0.26865306
80	0xbe75f0ce	-0.24017641
81	0xbe0db05b	-0.13836806
82	0xbd291abb	-0.041285258
83	0xbec7b02b	-0.39001593
84	0xbe8d4172	-0.27588993
85	0xbe56f829	-0.20993103
86	0xbe8d2310	-0.27565813
87	0xbe76db44	-0.2410708
88	0xbdaeea82	-0.085408226
89	0xbe3950ab	-0.18097179
90	0x3d646fd6	0.055770718
91	0x3d011a25	0.031519074
92	0xbed47179	-0.41492823
93	0xbe843b92	-0.258267
94	0xbeb27ac8	-0.348593
95	0x3c0ec0ec	0.008712988
96	0x3da258db	0.07927104
97	0x3e87d08c	0.26526296
98	0xbd12ebba	-0.035869338
99	0x3a9a5851	0.0011775588
100	0xbeaa9b7f	-0.3332176
101	0xbe29bd14	-0.16576034
102	0xbd8b0e0e	-0.0678979
103	0x3cd031c2	0.025414351
104	0x3eb38b8a	0.35067397
105	0xbf0c2190	-0.5473871
106	0xbe1b3930	-0.15158534
107	0xbea65792	-0.32488686
108	0xbdf89b3e	-0.12138985
109	0xbc481283	-0.012211445
110	0xbe556039	-0.20837487
111	0xbed0ea27	-0.40803644
112	0x3e12da80	0.14341164
113	0xbd47bf4c	-0.04876642
114	0xbd4795c5	-0.048726816
115	0xbdd6d105	-0.10489086
116	0xbea52fa6	-0.32262915
117	0xbf23aa91	-0.6393214
118	0x3e22334e	0.15839884
119	0xbd1a38a3	-0.03765167
120	0xbf0fcadf	-0.5616893
121	0xbd358123	-0.044312607
122	0x3dc58bbe	0.09645794
123	0xbda716c3	-0.08158638
124	0xbde56e3c	-0.11202666
125	0xbbfa7246	-0.007643017
126	0xbe1825b9	-0.1485814
127	0xba268495	-0.0006352154
128	0x3cc91d8c	0.024550222
129	0x3e46af12	0.19402722
130	0xbe80c125	-0.25147358
131	0x3dc0ca27	0.094135575
132	0xbf1c8f76	-0.61156404
133	0xbe1416de	-0.14461848
134	0xbe90af65	-0.28258815
135	0x3d012844	0.03153254
136	0x3c4c1602	0.012456419
137	0xbebf7c37	-0.37399456
138	0xbd690b00	-0.056895256
139	0x3c1bac44	0.009501521
140	0x3dae6b7b	0.08516594
141	0xbe3b0be4	-0.18266255
142	0x3e574e9c	0.21026081
143	0x3dc7db97	0.0975868
144	0xbe1ede55	-0.155145
145	0xbdff6c47	-0.12471824
146	0xbe0f3668	-0.13985598
147	0xbbd65502	-0.0065408954
148	0xbe79b5a2	-0.24385694
149	0x3d6f1f2f	0.05837935
150	0xbeb8d6a2	-0.36101252
151	0x3cf0c507	0.029390825
152	0xbe628907	-0.22122584
153	0x3e63ff64	0.22265393
154	0xbe58d86b	-0.21176307
155	0x3e0c5b92	0.13706806
156	0xbe91acbc	-0.28452098
157	0xbd7338d3	-0.059380364
158	0x3dd304fc	0.10303685
159	0xbe4e9ca6	-0.20176944
160	0x3dbe12c5	0.09280924
161	0x3e07edb3	0.13274269
162	0x3ec82d06	0.3909685
163	0xbea19b23	-0.31563672
164	0xbe067fe9	-0.13134731
165	0xbda34ebb	-0.07974001
166	0x3ec467be	0.383604
167	0x3e7c6151	0.24646498
168	0xbbf8516b	-0.007578065
169	0x3e297fd5	0.1655267
170	0xbd9b87ed	-0.07594285
171	0x3dc55806	0.0963593
172	0x3e15c59f	0.14626168
173	0x3de33c6c	0.11095509
174	0x3da9e121	0.08294893
175	0xbdd90901	-0.105974205
176	0xbe59d25d	-0.21271653
177	0x3e8b7ce0	0.2724371
178	0xbde6c5c9	-0.11268193
179	0x3d9532c4	0.072850734
180	0xbda6f0df	-0.08151411
181	0x3e94c833	0.2905899
182	0x3d5b04ec	0.05347149
183	0x3eaba3a3	0.33523282
184	0x3e64be99	0.22338332
185	0xbe318471	-0.17335679
186	0x3e7ee5c5	0.24892338
187	0xbc24a3d1	-0.0100488225
188	0x3e836d7d	0.2566947
189	0x3cc308f4	0.02380798
190	0x3d8f30be	0.06991719
191	0x3e655284	0.22394758
192	0x3ef5f9c6	0.48042125
193	0xbebb2634	-0.36552584
194	0xbe299122	-0.1655927
195	0x3da2c557	0.07947796
196	0xbcdba454	-0.026811756
197	0xbd6c3bf1	-0.057674352
198	0x3df9b355	0.12192408
199	0x3d0f3870	0.034965932
200	0xbdc016a1	-0.09379316
201	0xbe759b82	-0.23985103
202	0x3d1e4be9	0.038646612
203	0x3e1230a9	0.14276375
204	0x3d7556ea	0.05989734
205	0x3d621634	0.055196956
206	0x3d4cb8a6	0.049980782
207	0x3e25ccdb	0.16191427
208	0xbce597c9	-0.028026478
209	0xbe760e43	-0.24028878
210	0x3d5334c5	0.051563997
211	0x3de8198d	0.113329984
212	0x3d9c7daf	0.0764116
213	0xbe22acd8	-0.15886247
214	0x3dddf6bb	0.10838076
215	0xbd99b64c	-0.075054735
216	0x3da81f6d	0.08209119
217	0xbed49fa4	-0.41528046
218	0x3dbc7005	0.092010535
219	0x3e99bb8b	0.30025896
220	0x3e97dc96	0.2966048
221	0xbdec4d82	-0.11538221
222	0x3daba419	0.083809085
223	0xbd90e8e7	-0.070756726
224	0xbe8c941e	-0.27456754
225	0xbeb358cd	-0.35028687
226	0x3e398b20	0.18119478
227	0xbe3cbe43	-0.18431954
228	0xbe10be73	-0.1413515
229	0x3d344195	0.044007856
230	0xbda8602e	-0.0822147
231	0xbe83a03e	-0.25708193
232	0x3db42115	0.087953724
233	0xbe5dc748	-0.21658051
234	0x3d8b2768	0.067946255
235	0xbcbb715b	-0.0228812
236	0xbd74c2df	-0.059756156
237	0x3dd06ccc	0.10177001
238	0x3e33d583	0.17561917
239	0xbd12f98b	-0.035882514
240	0x3c629bfd	0.013831136
241	0x3e9f3d8a	0.31101638
242	0xbd87d9d1	-0.06633342
243	0x3e4a8331	0.19776608
244	0xbe80b948	-0.25141358
245	0x3e16a3c2	0.14710906
246	0x3e3cb3fd	0.18428035
247	0xbd7ded10	-0.06199366
248	0x3e82ee1e	0.25572294
249	0xbd734627	-0.059393074
250	0xbecb5d54	-0.3971964
251	0xbe367761	-0.17818977
252	0xbc951106	-0.018196594
253	0xbe7ab053	-0.24481325
254	0x3e944519	0.28958967
255	0x3d7483cb	0.059696

conv3.bias f4 [128]
0	0x3d2793b2	0.040912338
1	0xbe609b7f	-0.21934317
2	0xbd0f811b	-0.035035234
3	0xbc504158	-0.012710892
4	0x3d94b710	0.07261479
5	0x3e2b3e45	0.16722973
6	0x3c56ad12	0.013102787
7	0xbe8869f5	-0.2664334
8	0x3e00879d	0.12551732
9	0xbd6702b6	-0.05639907
10	0x3d77f8cc	0.060540006
11	0x3d1f6a3e	0.03891968
12	0x3d865d77	0.06560796
13	0x3e6f2747	0.23354827
14	0xbcfa1af4	-0.03053043
15	0xbde44887	-0.11146646
16	0xbd40bf02	-0.04705716
17	0x3e3bf34f	0.18354534
18	0xbe5cf240	-0.21576786
19	0x3e3eb2f6	0.18622956
20	0x3c12ce30	0.008960292
21	0xbe2e90bf	-0.17047404
22	0x3d50b290	0.05095154
23	0xbcb6d1a6	-0.022316765
24	0x3d407b85	0.046992797
25	0x3d385233	0.045000266
26	0x3e49c9dc	0.1970591
27	0x3e5df718	0.2167629
28	0xbd39ebad	-0.045390774
29	0xbe10a52b	-0.14125507
30	0xbe5287b0	-0.20559573
31	0x3e985a19	0.2975624
32	0x3e4155e2	0.18880418
33	0x3d96b4e2	0.073587194
34	0x3e8458b5	0.25848928
35	0xbd5b6d2b	-0.053570908
36	0x3da73e95	0.081662335
37	0x3eb7d075	0.35901228
38	0xbef6601e	-0.48120207
39	0xbe6c7062	-0.23089746
40	0x3ebad7ae	0.36492676
41	0x3e4a2c44	0.19743448
42	0xbec68dcd	-0.3878006
43	0xbd49187d	-0.04909562
44	0xbe0d316c	-0.13788384
45	0x3dcdfb54	0.10057703
46	0xbd32ef1c	-0.043685064
47	0xbd68929e	-0.05678045
48	0xbd8f5675	-0.06998912
49	0x3d317bdb	0.04333101
50	0xbe2bcb79	-0.16776837
51	0x3e0cf5a8	0.13765585
52	0x3e530c34	0.20610124
53	0x3e88bdb6	0.26707238
54	0x3e7b7893	0.24557714
55	0xbdea3c92	-0.11437334
56	0x3e3cd206	0.18439493
57	0xbdf47eef	-0.11938273
58	0x3e6bb579	0.23018445
59	0xbd30e9fd	-0.0431919
60	0xbd6f6aad	-0.058451343
61	0x3d358720	0.04431832
62	0x3da5abbf	0.080893986
63	0xbdef945a	-0.11698218
64	0xbd4fca80	-0.05073023
65	0xbe16aa1c	-0.14713329
66	0x3cd54a16	0.026036303
67	0xbd5b01bf	-0.053468462
68	0x3ce2d321	0.027688565
69	0xbd4d3c02	-0.050106056
70	0xbd40ef55	-0.047103245
71	0xbd9247ad	-0.07142577
72	0xbe82e5b9	-0.2556589
73	0x3e4d7a1f	0.20066117
74	0xbeacddc7	-0.33762953
75	0x3d43b86b	0.047783297
76	0x3d185d10	0.037198126
77	0xbd81ce97	-0.06338232
78	0x3d642440	0.055698633
79	0x3d1e217b	0.03860615
80	0xbdba3ef7	-0.09094041
81	0x3c7ebdff	0.015548228
82	0xbe216893	-0.15762548
83	0xbe2851a0	-0.16437387
84	0xbd2b2d05	-0.04179098
85	0xbe65b176	-0.22430977
86	0xbe6620f6	-0.22473511
87	0xbbd6d3f7	-0.00655603
88	0x3d1f1eb8	0.038847655
89	0x3e614e65	0.22002561
90	0x3d31cf21	0.043410424
91	0xbe165e7e	-0.14684483
92	0xbe7a7cdc	-0.24461693
93	0x3e5324b9	0.20619477
94	0xbd6c5955	-0.05770238
95	0x3e552bb6	0.20817456
96	0x3db5e893	0.08882251
97	0x3b10c0d7	0.0022087598
98	0xbc813d0a	-0.015776176
99	0x3e25fc6b	0.16209571
100	0x3f084ccb	0.53242177
101	0xbe3c0f80	-0.18365288
102	0xbd2b0074	-0.04174848
103	0x3d0a8cce	0.033825688
104	0x3e75148e	0.23933622
105	0x3dfa63b7	0.1222605
106	0x3d87f314	0.0663816
107	0x3c1b440e	0.009476675
108	0x3ee3c975	0.44489637
109	0x3cae035b	0.021241834
110	0xbce09d47	-0.027418746
111	0x3e193b73	0.14964084
112	0x3e0c3029	0.13690247
113	0x3e259cde	0.16173121
114	0x3c9cd71d	0.019145543
115	0xbe4b4e9d	-0.19854207
116	0x3de0ef55	0.10983149
117	0xbe78ec3b	-0.24308865
118	0x3e08e50f	0.13368629
119	0x3e9ef556	0.3104655
120	0xbda39f7b	-0.07989403
121	0x3d73f44d	0.059559155
122	0x3c7c7ba1	0.015410335
123	0x3d7319b6	0.05935069
124	0xbe5cbd31	-0.21556546
125	0xbdaacbe2	-0.08339669
126	0xbdc78db3	-0.09743824
127	0x3d8ffc2f	0.07030522

bn3.weight f4 [128]
0	0x3f6d3392	0.92656815
1	0x3f867645	1.0504843
2	0x3f462516	0.7740034
3	0x3f795876	0.97400606
4	0x3f5e34f1	0.8679953
5	0x3f719251	0.94363886
6	0x3f7ab572	0.97933114
7	0x3fb2cd55	1.3968912
8	0x3f9c5207	1.2212533
9	0x3f8b7200	1.0894165
10	0x3f452fb4	0.77025914
11	0x3f953330	1.1656246
12	0x3f8a0877	1.0783833
13	0x3f30d05b	0.69067925
14	0x3f80014d	1.0000397
15	0x3f6476ce	0.8924378
16	0x3f0da32a	0.55327094
17	0x3f8c2ae1	1.0950586
18	0x3f461761	0.77379423
19	0x3f7d055d	0.9883631
20	0x3f897030	1.0737362
21	0x3f678ccc	0.90449214
22	0x3f7c630d	0.9858864
23	0x3f320b12	0.6954814
24	0x3f603343	0.8757822
25	0x3f591ed3	0.8481266
26	0x3f7515f0	0.957366
27	0x3f8122eb	1.0088781
28	0x3f8bf5be	1.093437
29	0x3fb3d804	1.4050298
30	0x3f8f9eae	1.12203
31	0x3fa50af2	1.2893965
32	0x3f67f4fa	0.9060818
33	0x3f677c87	0.9042439
34	0x3f86caae	1.0530603
35	0x3f897773	1.0739578
36	0x3f8cb460	1.0992546
37	0x3f482578	0.7818217
38	0x3f671d61	0.90279204
39	0x3f133036	0.5749544
40	0x3f938d50	1.15275
41	0x3f664445	0.8994792
42	0x3f556a99	0.8336578
43	0x3f36085b	0.711065
44	0x3fa3c4c6	1.2794425
45	0x3f6805b3	0.90633696
46	0x3f87d269	1.0611087
47	0x3f818d96	1.0121334
48	0x3f88d9fd	1.0691525
49	0x3f8e532d	1.1119133
50	0x3f890e5b	1.0707506
51	0x3f8df35b	1.1089891
52	0x3f7a4e15	0.97775394
53	0x3f8ba186	1.0908668
54	0x3f97ad82	1.1849825
55	0x3f108b57	0.56462616
56	0x3f84a496	1.0362728
57	0x3f84e479	1.0382224
58	0x3f413b10	0.7548075
59	0x3f860aee	1.0472085
60	0x3f473b94	0.77825284
61	0x3f615771	0.8802405
62	0x3f852f4c	1.0405059
63	0x3f8fcc04	1.1234136
64	0x3f9eeaa0	1.2415352
65	0x3f9f0741	1.2424089
66	0x3f8f0755	1.1174113
67	0x3f649055	0.89282733
68	0x3f5cb648	0.8621564
69	0x3f8233ae	1.0172021
70	0x3f8b477b	1.0881189
71	0x3f35736b	0.7087924
72	0x3f9335f3	1.1500839
73	0x3f8b6b3e	1.0892103
74	0x3fae44e8	1.3614779
75	0x3f60c936	0.87807024
76	0x3f706c40	0.93915176
77	0x3fb61dd9	1.4227859
78	0x3f97cd36	1.18595
79	0x3f7abe7c	0.97946906
80	0x3f676aa5	0.903971
81	0x3f8d8eb9	1.105918
82	0x3f8dcf36	1.1078861
83	0x3f72f931	0.94911486
84	0x3f8d01f2	1.1016219
85	0x3f4bfff1	0.7968741
86	0x3f3bb27e	0.7331923
87	0x3f56d2b3	0.8391525
88	0x3f304da3	0.68868464
89	0x3f94d7ef	1.1628398
90	0x3f81280d	1.0090348
91	0x3f990d92	1.1957266
92	0x3f46879e	0.77550685
93	0x3f841786	1.0319679
94	0x3f7908df	0.9727916
95	0x3f8adcc1	1.0848619
96	0x3f47b1a9	0.7800546
97	0x3f9360e7	1.1513947
98	0x3f43391b	0.7625901
99	0x3f8b5a54	1.0886941
100	0x3f49f43b	0.7888829
101	0x3f9cca71	1.224928
102	0x3f1dd385	0.6165088
103	0x3f8306a0	1.0236397
104	0x3f1112b4	0.56669164
105	0x3f79638e	0.97417533
106	0x3f60edd1	0.8786288
107	0x3f92b9ca	1.1462948
108	0x3fa8f00c	1.3198256
109	0x3f569208	0.83816576
110	0x3f1749d5	0.59097034
111	0x3f654cea	0.89570487
112	0x3f51815e	0.81838024
113	0x3f92d3a1	1.1470834
114	0x3f4d8a8c	0.8028953
115	0x3f78d200	0.97195435
116	0x3f849500	1.0357971
117	0x3f5fa594	0.8736203
118	0x3f78d179	0.9719463
119	0x3f7037a4	0.938349
120	0x3f5ba62d	0.8580044
121	0x3f5f39f2	0.8719779
122	0x3f40eb3d	0.75358945
123	0x3f80c050	1.0058689
124	0x3f883f4d	1.0644318
125	0x3f6fcbf5	0.9367059
126	0x3f8fba26	1.1228683
127	0x3f4f86de	0.81065166

bn3.bias f4 [128]
0	0xbe613bee	-0.21995518
1	0xbea19faf	-0.3156714
2	0xbee6ffdf	-0.4511709
3	0xbed6d720	-0.41961002
4	0xbddbb7ec	-0.1072844
5	0xbea4cfd5	-0.32189813
6	0xbdf21a59	-0.11821432
7	0xbe6f7056	-0.23382697
8	0xbebabbad	-0.3647131
9	0xbeda2d18	-0.4261253
10	0xbede6dda	-0.43443185
11	0xbf5da9b8	-0.86587095
12	0xbef70450	-0.48245478
13	0xbf398a92	-0.72477067
14	0xbeded073	-0.4351841
15	0xbf5535d5	-0.83285266
16	0xbe589700	-0.21151352
17	0xbefe112d	-0.4962248
18	0xbeff7988	-0.49897408
19	0xbf167c1c	-0.58783126
20	0xbea98e30	-0.33116293
21	0xbebafe2a	-0.36522037
22	0xbec4b004	-0.3841554
23	0xbf21d766	-0.63219297
24	0xbed538fd	-0.4164504
25	0xbec83a84	-0.39107144
26	0xbf06d689	-0.52671105
27	0xbf0304ea	-0.51179373
28	0xbe9d1810	-0.3068242
29	0xbe70074a	-0.2344028
30	0xbebed62e	-0.3727278
31	0xbd30cba4	-0.043162957
32	0xbeced80b	-0.40399203
33	0xbf0626f5	-0.52403194
34	0xbee86f79	-0.45397547
35	0xbefdf038	-0.49597335
36	0xbde2c785	-0.110732116
37	0xbee0a5a5	-0.43876377
38	0xbe69234c	-0.22767371
39	0xbf0d8a14	-0.55288815
40	0xbe90567e	-0.28190988
41	0xbec763a7	-0.38943216
42	0xbf1049f1	-0.56362826
43	0xbe95d327	-0.2926266
44	0xbf23c2e6	-0.63969266
45	0xbeff4c7e	-0.49863046
46	0xbed667c8	-0.41876054
47	0xbf17d31e	-0.59306514
48	0xbea68fa9	-0.3253148
49	0xbed98ebd	-0.42491713
50	0xbf0eaa0b	-0.55728215
51	0xbed01a9b	-0.40645298
52	0xbe2e3298	-0.17011487
53	0xbeef8eb8	-0.46788573
54	0xbf1bb95b	-0.60829705
55	0xbf426bb1	-0.75945574
56	0xbecd132f	-0.40053698
57	0xbed1c636	-0.40971535
58	0xbf25ab44	-0.64714456
59	0xbe8d9f99	-0.27660826
60	0xbea61333	-0.32436523
61	0xbec51ebb	-0.38500008
62	0xbf6220e8	-0.8833146
63	0xbed2e131	-0.41187432
64	0xbd88e7e1	-0.066848524
65	0xbea80145	-0.3281347
66	0xbf0e1f8e	-0.555169
67	0xbf05a076	-0.5219797
68	0xbe9d5b76	-0.30733842
69	0xbf00513b	-0.5012395
70	0xbef945b3	-0.4868599
71	0xbeee02e7	-0.4648659
72	0xbee8e39c	-0.45486152
73	0xbe950028	-0.29101682
74	0xbeedc0c0	-0.4643612
75	0xbece0dbe	-0.4024486
76	0xbeb09fab	-0.34496817
77	0xbeb58900	-0.35456085
78	0xbf04e52a	-0.51912177
79	0x3d3dbaea	0.046320833
80	0xbe599140	-0.21246815
81	0xbf0e525d	-0.55594426
82	0xbede8edd	-0.4346837
83	0xbe9c7963	-0.3056136
84	0xbeef0fd9	-0.46691778
85	0xbea3207e	-0.31860727
86	0xbdbedfbc	-0.09320018
87	0xbf0f415f	-0.55959123
88	0xbeca8040	-0.39550972
89	0xbe9318a4	-0.28729737
90	0xbeb9a562	-0.3625899
91	0xbed4ff0a	-0.4160083
92	0xbeff17c2	-0.49822813
93	0xbea40def	-0.3204188
94	0xbf1dbcd6	-0.61616266
95	0xbedaff05	-0.4277269
96	0xbea123dc	-0.3147267
97	0xbf2c2c34	-0.6725495
98	0xbec0d83d	-0.37664977
99	0xbf15e270	-0.5854864
100	0xbf1bb860	-0.6082821
101	0xbea05e54	-0.31321967
102	0xbec80f9a	-0.39074403
103	0xbe749dfd	-0.23888393
104	0xbe9ef83e	-0.3104877
105	0xbcdf9c53	-0.02729622
106	0x3d1e333c	0.03862308
107	0xbee8630d	-0.4538807
108	0xbf037de5	-0.51363975
109	0xbf0d3067	-0.5515198
110	0xbee89a6e	-0.4543032
111	0xbe5033ae	-0.20332214
112	0xbf202ec2	-0.62571347
113	0xbf8d4a44	-1.1038289
114	0xbf09fab8	-0.5389819
115	0xbf360f33	-0.7111694
116	0xbf0c33c8	-0.5476651
117	0xbe97f052	-0.29675537
118	0xbf2b9860	-0.6702938
119	0xbeed6aca	-0.46370536
120	0xbee3f503	-0.44522867
121	0xbebcd903	-0.36884317
122	0xbe9aa9d0	-0.30207682
123	0xbee60854	-0.4492823
124	0xbea76f8e	-0.32702297
125	0xbe9d9711	-0.30779317
126	0xbf2fc267	-0.6865601
127	0xbec633b3	-0.38711318

bn3.running_mean f4 [128]
0	0x00000000	0.0
1	0x00000000	0.0
2	0x00000000	0.0
3	0x00000000	0.0
4	0x00000000	0.0
5	0x00000000	0.0
6	0x00000000	0.0
7	0x00000000	0.0
8	0x00000000	0.0
9	0x00000000	0.0
10	0x00000000	0.0
11	0x00000000	0.0
12	0x00000000	0.0
13	0x00000000	0.0
14	0x00000000	0.0
15	0x00000000	0.0
16	0x00000000	0.0
17	0x00000000	0.0
18	0x00000000	0.0
19	0x00000000	0.0
20	0x00000000	0.0
21	0x00000000	0.0
22	0x00000000	0.0
23	0x00000000	0.0
24	0x00000000	0.0
25	0x00000000	0.0
26	0x00000000	0.0
27	0x00000000	0.0
28	0x00000000	0.0
29	0x00000000	0.0
30	0x00000000	0.0
31	0x00000000	0.0
32	0x00000000	0.0
33	0x00000000	0.0
34	0x00000000	0.0
35	0x00000000	0.0
36	0x00000000	0.0
37	0x00000000	0.0
38	0x00000000	0.0
39	0x00000000	0.0
40	0x00000000	0.0
41	0x00000000	0.0
42	0x00000000	0.0
43	0x00000000	0.0
44	0x00000000	0.0
45	0x00000000	0.0
46	0x00000000	0.0
47	0x00000000	0.0
48	0x00000000	0.0
49	0x00000000	0.0
50	0x00000000	0.0
51	0x00000000	0.0
52	0x00000000	0.0
53	0x00000000	0.0
54	0x00000000	0.0
55	0x00000000	0.0
56	0x00000000	0.0
57	0x00000000	0.0
58	0x00000000	0.0
59	0x00000000	0.0
60	0x00000000	0.0
61	0x00000000	0.0
62	0x00000000	0.0
63	0x00000000	0.0
64	0x00000000	0.0
65	0x00000000	0.0
66	0x00000000	0.0
67	0x00000000	0.0
68	0x00000000	0.0
69	0x00000000	0.0
70	0x00000000	0.0
71	0x00000000	0.0
72	0x00000000	0.0
73	0x00000000	0.0
74	0x00000000	0.0
75	0x00000000	0.0
76	0x00000000	0.0
77	0x00000000	0.0
78	0x00000000	0.0
79	0x00000000	0.0
80	0x00000000	0.0
81	0x00000000	0.0
82	0x00000000	0.0
83	0x00000000	0.0
84	0x00000000	0.0
85	0x00000000	0.0
86	0x00000000	0.0
87	0x00000000	0.0
88	0x00000000	0.0
89	0x00000000	0.0
90	0x00000000	0.0
91	0x00000000	0.0
92	0x00000000	0.0
93	0x00000000	0.0
94	0x00000000	0.0
95	0x00000000	0.0
96	0x00000000	0.0
97	0x00000000	0.0
98	0x00000000	0.0
99	0x00000000	0.0
100	0x00000000	0.0
101	0x00000000	0.0
102	0x00000000	0.0
103	0x00000000	0.0
104	0x00000000	0.0
105	0x00000000	0.0
106	0x00000000	0.0
107	0x00000000	0.0
108	0x00000000	0.0
109	0x00000000	0.0
110	0x00000000	0.0
111	0x00000000	0.0
112	0x00000000	0.0
113	0x00000000	0.0
114	0x00000000	0.0
115	0x00000000	0.0
116	0x00000000	0.0
117	0x00000000	0.0
118	0x00000000	0.0
119	0x00000000	0.0
120	0x00000000	0.0
121	0x00000000	0.0
122	0x00000000	0.0
123	0x00000000	0.0
124	0x00000000	0.0
125	0x00000000	0.0
126	0x00000000	0.0
127	0x00000000	0.0

bn3.running_var f4 [128]
0	0x3f800000	1.0
1	0x3f800000	1.0
2	0x3f800000	1.0
3	0x3f800000	1.0
4	0x3f800000	1.0
5	0x3f800000	1.0
6	0x3f800000	1.0
7	0x3f800000	1.0
8	0x3f800000	1.0
9	0x3f800000	1.0
10	0x3f800000	1.0
11	0x3f800000	1.0
12	0x3f800000	1.0
13	0x3f800000	1.0
14	0x3f800000	1.0
15	0x3f800000	1.0
16	0x3f800000	1.0
17	0x3f800000	1.0
18	0x3f800000	1.0
19	0x3f800000	1.0
20	0x3f800000	1.0
21	0x3f800000	1.0
22	0x3f800000	1.0
23	0x3f800000	1.0
24	0x3f800000	1.0
25	0x3f800000	1.0
26	0x3f800000	1.0
27	0x3f800000	1.0
28	0x3f800000	1.0
29	0x3f800000	1.0
30	0x3f800000	1.0
31	0x3f800000	1.0
32	0x3f800000	1.0
33	0x3f800000	1.0
34	0x3f800000	1.0
35	0x3f800000	1.0
36	0x3f800000	1.0
37	0x3f800000	1.0
38	0x3f800000	1.0
39	0x3f800000	1.0
40	0x3f800000	1.0
41	0x3f800000	1.0
42	0x3f800000	1.0
43	0x3f800000	1.0
44	0x3f800000	1.0
45	0x3f800000	1.0
46	0x3f800000	1.0
47	0x3f800000	1.0
48	0x3f800000	1.0
49	0x3f800000	1.0
50	0x3f800000	1.0
51	0x3f800000	1.0
52	0x3f800000	1.0
53	0x3f800000	1.0
54	0x3f800000	1.0
55	0x3f800000	1.0
56	0x3f800000	1.0
57	0x3f800000	1.0
58	0x3f800000	1.0
59	0x3f800000	1.0
60	0x3f800000	1.0
61	0x3f800000	1.0
62	0x3f800000	1.0
63	0x3f800000	1.0
64	0x3f800000	1.0
65	0x3f800000	1.0
66	0x3f800000	1.0
67	0x3f800000	1.0
68	0x3f800000	1.0
69	0x3f800000	1.0
70	0x3f800000	1.0
71	0x3f800000	1.0
72	0x3f800000	1.0
73	0x3f800000	1.0
74	0x3f800000	1.0
75	0x3f800000	1.0
76	0x3f800000	1.0
77	0x3f800000	1.0
78	0x3f800000	1.0
79	0x3f800000	1.0
80	0x3f800000	1.0
81	0x3f800000	1.0
82	0x3f800000	1.0
83	0x3f800000	1.0
84	0x3f800000	1.0
85	0x3f800000	1.0
86	0x3f800000	1.0
87	0x3f800000	1.0
88	0x3f800000	1.0
89	0x3f800000	1.0
90	0x3f800000	1.0
91	0x3f800000	1.0
92	0x3f800000	1.0
93	0x3f800000	1.0
94	0x3f800000	1.0
95	0x3f800000	1.0
96	0x3f800000	1.0
97	0x3f800000	1.0
98	0x3f800000	1.0
99	0x3f800000	1.0
100	0x3f800000	1.0
101	0x3f800000	1.0
102	0x3f800000	1.0
103	0x3f800000	1.0
104	0x3f800000	1.0
105	0x3f800000	1.0
106	0x3f800000	1.0
107	0x3f800000	1.0
108	0x3f800000	1.0
109	0x3f800000	1.0
110	0x3f800000	1.0
111	0x3f800000	1.0
112	0x3f800000	1.0
113	0x3f800000	1.0
114	0x3f800000	1.0
115	0x3f800000	1.0
116	0x3f800000	1.0
117	0x3f800000	1.0
118	0x3f800000	1.0
119	0x3f800000	1.0
120	0x3f800000	1.0
121	0x3f800000	1.0
122	0x3f800000	1.0
123	0x3f800000	1.0
124	0x3f800000	1.0
125	0x3f800000	1.0
126	0x3f800000	1.0
127	0x3f800000	1.0
