octmnist_cnn.pth (torch, 678556 bytes, 22 tensors)

conv1.weight f4 [32, 1, 3, 3]
0	0x3deba46b	0.115059696
1	0xbe5149ff	-0.20438384
2	0xbdf39c51	-0.11895049
3	0x3edc0a10	0.42976427
4	0xbe91c210	-0.2846837
5	0xbe7f37af	-0.24923585
6	0x3e904977	0.2818105
7	0x3d013f29	0.031554375
8	0xbdd19d08	-0.102350295
9	0x3eae5ff4	0.3405758
10	0x3e8d06d7	0.2754428
11	0xbd89a287	-0.06720453
12	0x3b5a3937	0.0033298263
13	0xbec2a86b	-0.38019118
14	0xbdd20fa4	-0.102568895
15	0xbe3b8edd	-0.18316217
16	0xbea567f5	-0.32305875
17	0x3d9d8883	0.07692053
18	0x3e9256e6	0.28581923
19	0xbbf2f2be	-0.007414191
20	0x3e0bd266	0.1365448
21	0xbd9b68fe	-0.07588385
22	0x3d8e8738	0.06959385
23	0xbe18e0c1	-0.14929487
24	0xbee17971	-0.44037965
25	0xbee764fe	-0.45194238
26	0xbe109c77	-0.14122187
27	0x3dd52e30	0.104092
28	0xbd72fe95	-0.05932482
29	0x3da188ac	0.07887396
30	0x3e2edcf0	0.17076468
31	0xbf3f6800	-0.74768066
32	0x3dbabb40	0.09117746
33	0x3e554ce3	0.20830111
34	0xbe8704bf	-0.26370808
35	0x3cf46ee1	0.029838027
36	0xbe969a38	-0.29414535
37	0x3ee3257e	0.44364542
38	0xbe1db6b8	-0.15401733
39	0xbe69a2a9	-0.22815956
40	0x3eb0cd22	0.34531504
41	0xbdb846eb	-0.089979015
42	0xbe402500	-0.18764114
43	0x3e6033b4	0.21894723
44	0xbdf7aeb2	-0.12093867
45	0x3eaa6f63	0.33288106
46	0x3cf95dd7	0.030440254
47	0xbebc7f77	-0.36815998
48	0xbe87abb5	-0.2649819
49	0x3e9ac615	0.3022925
50	0xbd8e2049	-0.06939752
51	0xbe906beb	-0.28207335
52	0x3e8befd5	0.27331415
53	0xbcaf8f61	-0.021430673
54	0x3caf40db	0.02139323
55	0xbf024060	-0.5087948
56	0x3f02f0a0	0.51148415
57	0xbc9f900d	-0.019477868
58	0x3e2c01b4	0.16797525
59	0xbe35d322	-0.17756322
60	0x3cb2b326	0.02181394
61	0x3e2ce383	0.16883664
62	0xbe66421e	-0.22486159
63	0xbe130726	-0.14358196
64	0x3ebe0803	0.37115487
65	0xbd8cc10b	-0.068727575
66	0xbebd0e38	-0.3692491
67	0x3d95210f	0.07281696
68	0x3eb7ba39	0.35884264
69	0xbe8c50d5	-0.2740542
70	0xbe796a1c	-0.24356884
71	0x3e8f7bcc	0.28024137
72	0x3c83ce16	0.01608948
73	0xbe99e293	-0.30055675
74	0xbe8697b7	-0.26287624
75	0x3e81157e	0.2521171
76	0x3eedbe7f	0.464344
77	0x3e0037a2	0.12521222
78	0xbe1a75e9	-0.15084042
79	0xbe1e0898	-0.15432966
80	0x3ded1b45	0.11577467
81	0xbdc085af	-0.09400498
82	0x3e25c081	0.16186716
83	0x3e2704db	0.16310446
84	0x3eac4d26	0.3365261
85	0x3ec9fbd9	0.39449957
86	0xbdca559c	-0.0987961
87	0x3e11ce5d	0.14238878
88	0xbe96eab7	-0.29475948
89	0xbe842aca	-0.25813895
90	0x3ea601ad	0.32423154
91	0x3c927b20	0.017880976
92	0xbe76fe38	-0.24120414
93	0x3e34b180	0.17645836
94	0x3c2b9668	0.010472871
95	0xbebdde45	-0.3708364
96	0x3c5a9f5f	0.013343661
97	0xbdbbb30e	-0.09165011
98	0xbcefc7d5	-0.029270092
99	0x3d37be9c	0.044859514
100	0x3ecc277b	0.3987387
101	0x3dc38dab	0.095485054
102	0xbb9d837f	-0.0048069353
103	0x3f276546	0.65388906
104	0x3e56fe4c	0.20995444
105	0xbdbb6a67	-0.09151154
106	0x3e2871aa	0.1644961
107	0x3e19a3a4	0.1500383
108	0x3e5fd2bc	0.21857733
109	0x3ea3036c	0.31838548
110	0xbeb0b47a	-0.34512693
111	0xbe60e826	-0.21963558
112	0x3e923ac7	0.2856047
113	0x3eb39d7c	0.3508109
114	0xbd9fc41b	-0.07801076
115	0xbe3e430f	-0.18580268
116	0x3d0a7e7f	0.033812042
117	0xbdac6188	-0.0841704
118	0xbe8a1272	-0.26967198
119	0xbdf14bee	-0.117820606
120	0xbe20d09a	-0.15704575
121	0x3f04a486	0.5181354
122	0x3ec17d05	0.37790695
123	0x3c144819	0.009050393
124	0xbdfd1756	-0.123579666
125	0xbe65cab3	-0.22440605
126	0xbdc3e4da	-0.09565134
127	0xbe60476a	-0.21902242
128	0x3ca41c4b	0.020033022
129	0xbe95a265	-0.2922546
130	0xbed33da7	-0.41257975
131	0xbc689c6a	-0.014197448
132	0x3eb00f21	0.34386542
133	0x3ea0875f	0.3135328
134	0xbe5620a5	-0.2091089
135	0xbdd624f8	-0.1045627
136	0x3e55a7ea	0.20864835
137	0xbe1ce3e9	-0.15321316
138	0x3c95285e	0.018207725
139	0xbefbaf05	-0.49156967
140	0x3e85ab6b	0.26107344
141	0x3dc5b5d3	0.09653821
142	0xbe183150	-0.14862561
143	0x3e3c3271	0.18378617
144	0x3e2c78d8	0.16842973
145	0x3e8908d3	0.26764545
146	0x3e96a06b	0.29419264
147	0xbe668ada	-0.22513905
148	0x3e68bd84	0.22728544
149	0x3daeca1b	0.08534642
150	0xbe778ff6	-0.2417601
151	0xbeaf7001	-0.3426514
152	0xbebe3f51	-0.37157682
153	0xbe37e662	-0.17958978
154	0xbe30d1af	-0.17267488
155	0x3e87e026	0.265382
156	0xbe266bb4	-0.16252023
157	0xbdcb7755	-0.0993487
158	0x3ea3a224	0.3195964
159	0x3e1087b6	0.1411427
160	0xbed71db6	-0.42014855
161	0x3e72790b	0.23678987
162	0x3e807787	0.25091192
163	0x3e9c0bf0	0.30477858
164	0xbeb7b5c0	-0.35880852
165	0xbe6a0b15	-0.2285579
166	0xbeb7eaf9	-0.35921457
167	0x3e2496bc	0.16073126
168	0x3acb4b26	0.0015510067
169	0x3daacf05	0.08340267
170	0xbd30dcf5	-0.04317947
171	0x3c63944a	0.013890335
172	0x3e272771	0.1632364
173	0x3ebdc383	0.37063226
174	0xbe42e784	-0.19033629
175	0xbec859cb	-0.39131007
176	0xbe61e518	-0.22060049
177	0xbe1e6874	-0.15469533
178	0x3dd2dac9	0.10295636
179	0x3e3997b5	0.18124278
180	0xbed574d7	-0.41690704
181	0xbd3f7649	-0.046743665
182	0x3e618aca	0.220256
183	0xbe49ee2a	-0.19719759
184	0xbcde4794	-0.02713374
185	0x3e972aa0	0.29524708
186	0xbeaecaf2	-0.3413921
187	0xbcbd3f1d	-0.023101384
188	0x3e91e702	0.28496557
189	0xbe8f9e9b	-0.28050694
190	0x3d4554de	0.04817664
191	0x3e03c2cd	0.1286728
192	0xbe8afa42	-0.27144057
193	0x3db6a9f1	0.089191325
194	0x3efd7ddb	0.49510083
195	0xbd743247	-0.05961826
196	0x3e6c16ff	0.23055647
197	0x3df55da8	0.11980754
198	0xbe87af29	-0.26500824
199	0xbe301789	-0.17196478
200	0xbe2bd363	-0.16779856
201	0xbe651848	-0.22372544
202	0x3de13427	0.109962754
203	0xbe4a7b41	-0.1977358
204	0x3e7744f9	0.24147405
205	0x3ed65c46	0.41867274
206	0x3edadd5f	0.42747018
207	0xbe69ce10	-0.22832513
208	0xbd8abd87	-0.06774431
209	0x3e59bec6	0.2126418
210	0xbd059ff5	-0.03262325
211	0xbde62876	-0.11238186
212	0x3e83c2ba	0.25734502
213	0x3e158caf	0.14604448
214	0x3eb44860	0.35211468
215	0xbeecc93e	-0.46247286
216	0x3ef3d4d3	0.4762331
217	0xbdd0e1ce	-0.10199319
218	0x3e8ae5e1	0.2712851
219	0xba932a21	-0.0011227765
220	0x3e85bb02	0.26119238
221	0xbe96bcd7	-0.29440948
222	0x3e487817	0.1957706
223	0x3cfa0f35	0.03052483
224	0xbeb51ee4	-0.3537513
225	0xbb8bee00	-0.004270315
226	0xbe540d07	-0.20708095
227	0x3bc21310	0.0059226826
228	0xbebb7dc3	-0.36619386
229	0xbd9efc3e	-0.07762955
230	0xbe228612	-0.15871456
231	0x3e04d2d6	0.12971053
232	0xbefa878a	-0.48931533
233	0xbe884dbe	-0.26621813
234	0xbe0485f2	-0.12941721
235	0xbe4ddd8d	-0.20104046
236	0xbac6826f	-0.0015145073
237	0xbd0bb7ba	-0.034110762
238	0xbe2a99fd	-0.16660304
239	0x3eaddcc3	0.3395749
240	0xbd996bbb	-0.07491251
241	0xbd038eed	-0.032118727
242	0x3eedabf6	0.46420258
243	0xbc82c67b	-0.015963783
244	0xbe2a1532	-0.16609648
245	0x3e5ded86	0.21672639
246	0xbebb70b9	-0.36609438
247	0xbbcddb75	-0.006282265
248	0x3ec510f3	0.38489494
249	0xbeacf453	-0.33780155
250	0x3e069530	0.13142848
251	0x3e451c95	0.19249184
252	0x3d9afd9a	0.07567902
253	0xbea7fe49	-0.32811192
254	0x3e07f707	0.13277827
255	0x3da9407e	0.08264254

conv1.bias f4 [32]
0	0xbe22884f	-0.1587231
1	0x3ccb8af0	0.024846524
2	0x3e1c18a6	0.15243778
3	0x3dd4e966	0.1039608
4	0xbdb9ab0c	-0.09065828
5	0x3e394a17	0.1809467
6	0xbe7cae4f	-0.24675868
7	0xbe871fa3	-0.26391324
8	0xbd0018c8	-0.031273633
9	0xbe846e75	-0.25865522
10	0x3ceff04f	0.029289393
11	0xbe64fec0	-0.22362804
12	0xbec9faaa	-0.39449054
13	0xbe9845e5	-0.29740825
14	0xbe6995bc	-0.22811025
15	0xbe9f2ff7	-0.31091282
16	0xbedcdba3	-0.4313632
17	0x3f0ebf61	0.5576077
18	0x3e0cc1aa	0.13745752
19	0x3e792f17	0.2433437
20	0x3d9c4abd	0.07631443
21	0x3e077c0e	0.13230917
22	0x3e3c9e8c	0.18419856
23	0xbdac3341	-0.084082134
24	0x3ad5cac6	0.0016311042
25	0xbe9e5ace	-0.30928653
26	0xbe3c3385	-0.18379028
27	0x3d179dc1	0.03701568
28	0x3dfa9cbd	0.12236927
29	0xbe0473cc	-0.12934798
30	0x3cab0f5a	0.020881344
31	0x3e4cc8dd	0.19998498

bn1.weight f4 [32]
0	0x3fab67b3	1.3391021
1	0x3f75e056	0.96045434
2	0x3f36819f	0.71291536
3	0x3f924b2a	1.1429188
4	0x3f92a14f	1.1455477
5	0x3f4536d4	0.77036786
6	0x3f909b98	1.1297483
7	0x3f466f2a	0.7751337
8	0x3f69b3b7	0.9128985
9	0x3f855533	1.0416626
10	0x3f9e5e88	1.2372599
11	0x3f47569e	0.7786654
12	0x3f8465b7	1.0343541
13	0x3f8157de	1.010494
14	0x3f850164	1.0391049
15	0x3f52d1d0	0.823514
16	0x3f7cdfb1	0.98778826
17	0x3f711481	0.9417191
18	0x3f691034	0.9104035
19	0x3f7a3b50	0.97746754
20	0x3f7d4d7f	0.98946375
21	0x3f64188c	0.89099956
22	0x3f8a64d0	1.0812016
23	0x3f324beb	0.6964709
24	0x3f3819a6	0.71914136
25	0x3f592099	0.84815365
26	0x3f79adfc	0.97531104
27	0x3f68c641	0.9092751
28	0x3f730003	0.9492189
29	0x3f8d4cc5	1.1039053
30	0x3f8eecb1	1.1165982
31	0x3f5a0bed	0.8517445

bn1.bias f4 [32]
0	0x3d8e6822	0.069534555
1	0xbe8425c0	-0.2581005
2	0xbeb01757	-0.34392807
3	0xbe964069	-0.29346016
4	0x3e1541d3	0.14575891
5	0x3e06f3a9	0.13178886
6	0xbd9df892	-0.07713427
7	0x3e2d921e	0.1695027
8	0xbec3aa83	-0.38216028
9	0xbed0e468	-0.4079926
10	0xbcb7209b	-0.022354415
11	0xbef0be04	-0.4701997
12	0xbf470c61	-0.77753264
13	0xbef32f91	-0.47497228
14	0xbe12b654	-0.14327365
15	0xbdd531e4	-0.104099065
16	0xbcd23637	-0.025660617
17	0xbdbb0351	-0.09131492
18	0x3ca70f37	0.020392997
19	0x3e24e2a1	0.16102077
20	0xbe9c90af	-0.30579135
21	0xbf0e0b20	-0.55485725
22	0xbf3afc28	-0.7304101
23	0xbede067c	-0.43364322
24	0xbea19346	-0.31557673
25	0x3c4ee2ae	0.012627287
26	0x3d4944ca	0.049137868
27	0xbcb54a9d	-0.022130305
28	0xbdf7e381	-0.1210394
29	0x3e4ce00a	0.20007339
30	0xbe7c8b93	-0.24662618
31	0xbec8b5e5	-0.39201275

bn1.running_mean f4 [32]
0	0xbe5749af	-0.21024202
1	0xbe075704	-0.13216788
2	0xbe30d8db	-0.17270224
3	0xbd95af9a	-0.07308884
4	0xbdd19841	-0.10234118
5	0x3e29a1b2	0.16565588
6	0xbe89886d	-0.26861897
7	0xbe8b1cf9	-0.27170542
8	0x3cb97b41	0.02264178
9	0xbd6665b0	-0.05624932
10	0xbd5a65d5	-0.05331977
11	0x3ef44589	0.477093
12	0xbe6a0e6c	-0.22857064
13	0xbea0b3a0	-0.31387043
14	0xbef5c33a	-0.4800051
15	0xbebe491c	-0.37165153
16	0xbef7d4ed	-0.48404637
17	0x3f03caf2	0.51481545
18	0x3d6cad16	0.057782255
19	0x3e38736f	0.18012784
20	0xbcfcd551	-0.030863436
21	0x3eb1c028	0.34716916
22	0x3e82625d	0.2546567
23	0xbd5abcfb	-0.053402882
24	0x3e51fee5	0.20507391
25	0xbf6ca35a	-0.92436755
26	0xbdf6ba29	-0.12047226
27	0x3d3a9eef	0.045561727
28	0xbd1311da	-0.035905696
29	0xbdc69193	-0.09695735
30	0xbd7c5cba	-0.06161187
31	0x3e4904cb	0.19630735

bn1.running_var f4 [32]
0	0x3c96a0d0	0.018387228
1	0x3cfa2165	0.030533502
2	0x3d65f38f	0.05614048
3	0x3c971868	0.018444255
4	0x3c0ce047	0.008598394
5	0x3c0ec92f	0.008714958
6	0x3bd1f33d	0.00640717
7	0x3ca8a07c	0.020584337
8	0x3cbf3651	0.02334133
9	0x3cddc12f	0.027069656
10	0x3c636ccb	0.013880919
11	0x3dbe584c	0.09294185
12	0x3c8dbcde	0.017301973
13	0x3ca726b3	0.020404195
14	0x3d066e01	0.03281975
15	0x3bce419a	0.0062944414
16	0x3d579312	0.05263049
17	0x3c4a78eb	0.012357931
18	0x3c3b7b58	0.011442982
19	0x3cc11e11	0.023573907
20	0x3ccb02e0	0.024781644
21	0x3cdcfad8	0.02697508
22	0x3d5fb438	0.05461523
23	0x3c02c25b	0.007980908
24	0x3cdad708	0.026713863
25	0x3d8f80ad	0.07006965
26	0x3c9df525	0.019281933
27	0x3c97dc2e	0.018537607
28	0x3c1b7230	0.009487674
29	0x3c12fe5b	0.008971776
30	0x3d0eba8a	0.034845866
31	0x3c720fc1	0.014774264

conv2.weight f4 [64, 32, 3, 3]
0	0x3bcf05ae	0.0063178157
1	0xbb84a7a0	-0.004048303
2	0xbe521b1a	-0.20518151
3	0x3e4541fe	0.19263455
4	0x3db3ce6a	0.08779605
5	0xbd25feef	-0.040526327
6	0x3d67a88a	0.056557216
7	0x3e5f7b2f	0.21824335
8	0x3e3372bf	0.17524241
9	0xbdefb539	-0.11704487
10	0xbe60a473	-0.21937732
11	0xbd377d83	-0.04479743
12	0xbe458df6	-0.19292435
13	0x3e081684	0.13289839
14	0x3e916572	0.2839771
15	0xbd8b1354	-0.06790796
16	0xbe8ab4f0	-0.2709117
17	0x3ce448e7	0.027866794
18	0x3e56c84a	0.20974842
19	0xbe5686a1	-0.20949794
20	0xbe2c9e2d	-0.16857214
21	0xbe2056b4	-0.15658075
22	0xbe7e9d0b	-0.24864595
23	0x3e01a99a	0.12662354
24	0xbe3b143a	-0.18269435
25	0xbd7cd534	-0.061726764
26	0xbdb2f455	-0.08738009
27	0xbc0b71a9	-0.008510985
28	0xbe2a00c6	-0.16601858
29	0x3e4a745f	0.19770955
30	0x3e185e5c	0.14879745
31	0xbc3658fe	-0.011129616
32	0x3e85fdae	0.26170105
33	0x3ebf3153	0.3734232
34	0xbe04363c	-0.12911314
35	0x3e72f180	0.23724937
36	0x3e79e5e5	0.24404104
37	0x3dc8195d	0.09770463
38	0x3d2c5bc8	0.042079717
39	0x3ccac14c	0.024750374
40	0xbe237cfb	-0.15965645
41	0x3e317653	0.17330293
42	0x3dd2ad37	0.10286944
43	0xbe09c220	-0.13452959
44	0x3dee7b7b	0.11644646
45	0xbd7c020e	-0.061525397
46	0xbd371384	-0.044696346
47	0xbe5a580b	-0.21322648
48	0x3e1c7ada	0.15281239
49	0xbdb786c5	-0.08961252
50	0xbe398f4c	-0.1812107
51	0xbcd0e136	-0.025498014
52	0x3e39c58c	0.18141764
53	0xbd91736e	-0.071020946
54	0xbd233eb8	-0.039854735
55	0x3d6bebad	0.057597805
56	0xbd8e1309	-0.069372244
57	0xbd716513	-0.058934283
58	0xbd4562c2	-0.048189886
59	0x3ccc9387	0.02497269
60	0x3e2af099	0.16693343
61	0x3e6cf036	0.23138508
62	0x3c8a1c5d	0.016859228
63	0x3dbb7797	0.09153669
64	0x3d7a9ae8	0.061182886
65	0x3b887027	0.00416376
66	0xbe616856	-0.22012457
67	0xbce15710	-0.027507335
68	0x3db752f9	0.08951373
69	0x3b5c02e4	0.003357106
70	0xbe83559d	-0.25651255
71	0x3e279ace	0.16367647
72	0xbe72d9bd	-0.23715873
73	0xbe49b3bc	-0.1969747
74	0xbd203950	-0.039117157
75	0xbdcdaf59	-0.100432105
76	0x3ce6331c	0.028100543
77	0x3ce89f66	0.02839632
78	0x3e86e71c	0.26348197
79	0x3e186c8b	0.14885156
80	0x3da33fa0	0.0797112
81	0xbd9975af	-0.074931495
82	0xbb868d89	-0.004106228
83	0x3e5230d0	0.20526433
84	0xbedc0f6d	-0.4298052
85	0xbdd5cca1	-0.104394205
86	0x3d9be4f8	0.07612032
87	0x3da131db	0.07870837
88	0xbe146f1f	-0.14495514
89	0xbd8e9cdf	-0.069635145
90	0x3e92e45a	0.28689843
91	0xbddd32bb	-0.10800692
92	0xbe787a97	-0.24265514
93	0xbe5a6751	-0.21328475
94	0x3cdc26b3	0.026873922
95	0xbd538f78	-0.051650494
96	0xbe8385db	-0.2568806
97	0xbe20cc8f	-0.15703033
98	0xbe3074d3	-0.17232065
99	0xbe87c21e	-0.26515287
100	0xbe129a32	-0.14316633
101	0xbcca87ff	-0.024723051
102	0xbcde289b	-0.027118972
103	0xbe7eefd7	-0.24896179
104	0xbb150bc2	-0.0022742604
105	0x3eb87abb	0.36031136
106	0x3e37df0d	0.17956181
107	0xbd27348c	-0.040821597
108	0xbd16bd82	-0.036801822
109	0x3d8732ab	0.06601461
110	0x3b80a935	0.003926421
111	0xbe55e9f5	-0.20890029
112	0xbe6ce533	-0.23134308
113	0xbc87a199	-0.016556548
114	0x3e955ecb	0.29173884
115	0x3e0a8ce2	0.13530305
116	0x3d80f9c6	0.062976405
117	0x3da7367d	0.0816469
118	0x3db8a2bf	0.09015416
119	0x3e0e2ccb	0.13884275
120	0xbe2a275b	-0.16616575
121	0x3e4b5fa2	0.198607
122	0x3dae70a5	0.08517579
123	0x3dc4d964	0.096117765
124	0xbe8ce75d	-0.27520266
125	0xbd34b163	-0.04411448
126	0xbdd7624c	-0.105167955
127	0x3ddf7ce2	0.109124914
128	0x3dc2a2f3	0.09503736
129	0xbdc93493	-0.09824481
130	0xbdf3208d	-0.11871443
131	0x3e1080b6	0.141116
132	0x3b834389	0.0040058536
133	0x3c948a77	0.018132431
134	0x3e2c10bb	0.16803257
135	0x3cb02659	0.02150266
136	0x3d15d205	0.036577243
137	0x3e71bffc	0.23608392
138	0x3e464064	0.193605
139	0xbcf883d1	-0.030336292
140	0xbdecc369	-0.11560709
141	0xbd445dbf	-0.047940966
142	0xbe583943	-0.21115594
143	0x3ea5eaba	0.32405645
144	0xbe908964	-0.2822982
145	0xbe0f1064	-0.13971096
146	0xbe6b7c70	-0.22996688
147	0xbf1da496	-0.61579263
148	0xbdf4a80a	-0.119461134
149	0x3e3efdb6	0.1865147
150	0xbd4d6ad7	-0.05015072
151	0xbe4af6ce	-0.19820711
152	0xbd85bd3e	-0.06530236
153	0x3e07ad6e	0.13249752
154	0x3e0a584f	0.1351025
155	0x3c3b0e93	0.011417049
156	0x3dfc0d54	0.1230723
157	0xbc3e8a37	-0.011629633
158	0x3d8005ed	0.0625113
159	0x3e954c15	0.29159608
160	0xbefaa218	-0.48951793
161	0x3e0a2009	0.13488783
162	0x3e13a900	0.14419937
163	0x3e11b6e5	0.14229925
164	0xbddc34dc	-0.107522696
165	0xbe2af1c9	-0.16693796
166	0x3deeda81	0.1166277
167	0xbda78441	-0.08179522
168	0xbed8f749	-0.42376164
169	0xbe7618d4	-0.24032909
170	0xbc973442	-0.018457536
171	0xbd8fdb3b	-0.07024237
172	0xbe4507e3	-0.1924129
173	0x3c9af957	0.018917723
174	0xbe36cd34	-0.17851716
175	0x3da0c9a2	0.078509584
176	0x3e76a2e8	0.24085581
177	0xbea57de4	-0.3232261
178	0xbe6f51ee	-0.23371097
179	0xbdc89876	-0.097947046
180	0x3e8c5b9e	0.27413648
181	0x3ed34152	0.41260773
182	0x3d3c0c77	0.045910325
183	0xbd913171	-0.07089508
184	0xbe1d925c	-0.15387863
185	0x3cddd9fd	0.027081484
186	0xbe26daca	-0.16294399
187	0xbf029526	-0.5100883
188	0x3d568f3b	0.05238269
189	0x3dad3981	0.084582336
190	0x3e133781	0.14376642
191	0x3ddf34c2	0.10898735
192	0xbd3f3164	-0.046677962
193	0xbe0d1352	-0.13776901
194	0xbd5edc3a	-0.054409243
195	0x3e475d7d	0.19469257
196	0xbe1d093f	-0.15335558
197	0xbdb66de9	-0.089076824
198	0xbea6812a	-0.3252042
199	0x3cd345a8	0.02579005
200	0x3e772d1a	0.24138299
201	0x3d73219e	0.05935823
202	0xbc2fe272	-0.010735141
203	0xbdd047a6	-0.10169916
204	0xbda2c534	-0.0794777
205	0x3db5fd08	0.088861525
206	0xbd3c1287	-0.045916107
207	0xbcc5f825	-0.024166176
208	0xbcc565d2	-0.024096403
209	0xbd2f6687	-0.042822387
210	0xbe530038	-0.20605552
211	0x3d122e9b	0.035688978
212	0x3cd77e7e	0.026305433
213	0x3cf30536	0.02966557
214	0xbd6a8a26	-0.057260655
215	0x3d869c48	0.06572777
216	0xbd5f79c4	-0.054559484
217	0xbe357411	-0.17720057
218	0xbebe8afe	-0.37215418
219	0xbe41fe7f	-0.18944739
220	0x3c8a2698	0.016864106
221	0xbc977ac9	-0.018491166
222	0x3d8f18b8	0.069871366
223	0x3d8e5bda	0.06951113
224	0x3c94d994	0.018170156
225	0x3da5c7b8	0.08094734
226	0xbe29b10e	-0.16571447
227	0x3d5c10b3	0.053726863
228	0xbd1ecd99	-0.038770292
229	0xbdffd4f6	-0.12491791
230	0x3e22526b	0.15851752
231	0x3e23c928	0.15994704
232	0x3d53be8c	0.05169539
233	0x3e7e541a	0.2483677
234	0xbcc6da12	-0.024273906
235	0x3e447b9e	0.19187781
236	0xbaf472f5	-0.0018649983
237	0x3e81d6ed	0.25359288
238	0xbe33c62a	-0.17556062
239	0xbe0c9a3c	-0.1373071
240	0x3df2fa84	0.11864188
241	0xbe224726	-0.15847453
242	0x3d729ec9	0.05923346
243	0x3e1dccd6	0.1541017
244	0x3e611ada	0.219829
245	0x3dc40f68	0.09573251
246	0xbe0dca2d	-0.13846655
247	0xbdac8029	-0.08422882
248	0x3d902e85	0.07040123
249	0x3d0b3deb	0.033994596
250	0xbe3aed89	-0.18254675
251	0xbc50bc9a	-0.012740279
252	0xbe1d9f78	-0.15392864
253	0x3ea18930	0.31549978
254	0x3c461629	0.012090244
255	0x3d6fff1b	0.058592897

conv2.bias f4 [64]
0	0x3d067491	0.03282601
1	0xbc3aa36b	-0.011391501
2	0xbd54399e	-0.05181276
3	0xbcdb1ad4	-0.026746191
4	0xbd00f465	-0.031483073
5	0xbd570912	-0.052498884
6	0x3d73d4e9	0.05952922
7	0x3d13874d	0.036017705
8	0xbb5e1d31	-0.003389191
9	0xbd32a6ef	-0.04361623
10	0xbd2318ad	-0.039818455
11	0xbbbb5f38	-0.005718138
12	0x3c73e804	0.01488686
13	0xbcda801b	-0.026672414
14	0xbc2b2c31	-0.010447548
15	0x3c2eb411	0.010663048
16	0xbbb5a66a	-0.0055435197
17	0xbbd5cd29	-0.006524701
18	0x3d415a55	0.047205288
19	0xba7ea728	-0.0009714239
20	0xbd4a8abe	-0.04944872
21	0xbc9c6da2	-0.019095246
22	0xbc947075	-0.01812003
23	0xbbb13d96	-0.005408953
24	0x3cb80518	0.022463366
25	0xbd124740	-0.03571248
26	0xbcbdfe87	-0.023192657
27	0xbca9fdc8	-0.020750895
28	0xbcced2ed	-0.025247062
29	0x3c140fdf	0.009036987
30	0xbd0d5796	-0.034507357
31	0xbd25bd28	-0.040463597
32	0x3cf3d065	0.029762456
33	0xbc9e9792	-0.019359384
34	0xbd029ce5	-0.031887908
35	0xbc267427	-0.010159529
36	0xbd4f7b88	-0.050654918
37	0x3b8d76c3	0.004317136
38	0xbd307ede	-0.04308974
39	0x3d4323bb	0.047641497
40	0xb8b348c8	-8.548942e-05
41	0x3c78cfc4	0.015186254
42	0x3b70c561	0.003673874
43	0xbc5dbd05	-0.013533835
44	0x3c8ff84c	0.017574452
45	0xbcbc963c	-0.023020856
46	0xbd39fc6f	-0.045406755
47	0x3c981b4b	0.018567702
48	0x3ce7ba9d	0.028287226
49	0x3cc8b7c1	0.024501683
50	0xbcef7024	-0.029228278
51	0x3d257f9a	0.040404893
52	0x3cd62561	0.02614087
53	0x3c7eda72	0.015555011
54	0xbd6dded3	-0.05807383
55	0xba211e8e	-0.00061462156
56	0x3d28b542	0.041188486
57	0xbc88d022	-0.016700808
58	0xbd3ff67c	-0.046865925
59	0xba0423f6	-0.0005040759
60	0x3c7ff40e	0.015622152
61	0xbd010ed6	-0.03150829
62	0xbd33f94e	-0.043938927
63	0xbcece5db	-0.028918197

bn2.weight f4 [64]
0	0x3f72a77d	0.94786817
1	0x3f7302a7	0.9492592
2	0x3f73e59d	0.9527224
3	0x3f72542b	0.9465968
4	0x3f736a4f	0.9508409
5	0x3f5f6018	0.87256
6	0x3f41a84a	0.75647414
7	0x3f7c35eb	0.9851977
8	0x3f5bb6a4	0.8582556
9	0x3f715192	0.9426509
10	0x3f58fdcf	0.8476228
11	0x3f7a00fd	0.9765776
12	0x3f6ec07e	0.9326247
13	0x3f4a6dff	0.7907409
14	0x3f66f395	0.90215427
15	0x3f56a620	0.83847237
16	0x3f561dd6	0.83639276
17	0x3f80f164	1.0073667
18	0x3f5df502	0.8670198
19	0x3f673c2c	0.9032619
20	0x3f5fcaea	0.87419
21	0x3f81d0ae	1.0141809
22	0x3f705a21	0.93887526
23	0x3f2a8324	0.66606355
24	0x3f73bbd3	0.9520847
25	0x3f6dab1c	0.9283922
26	0x3f7cf927	0.98817676
27	0x3f74e3fc	0.95660377
28	0x3f68ab16	0.90886056
29	0x3f7664a7	0.96247333
30	0x3f58032b	0.84379834
31	0x3f39851e	0.72468746
32	0x3f5ec2d4	0.87016034
33	0x3f6468a9	0.892222
34	0x3f72a007	0.9477543
35	0x3f70d687	0.9407734
36	0x3f803b1a	1.0018036
37	0x3f82508f	1.0180835
38	0x3f68f1c1	0.9099389
39	0x3f545d34	0.82954717
40	0x3f5ab02c	0.85425067
41	0x3f85ab4a	1.0442898
42	0x3f87e7a9	1.0617572
43	0x3f825b24	1.0184064
44	0x3f684bf3	0.9074089
45	0x3f8204d8	1.0157728
46	0x3f69b373	0.9128944
47	0x3f55d430	0.835269
48	0x3f72561d	0.9466265
49	0x3f7e71cf	0.9939241
50	0x3f8c00ec	1.0937781
51	0x3f8bed56	1.0931804
52	0x3f7c834d	0.9863785
53	0x3f4d43a5	0.8018134
54	0x3f87d0aa	1.0610554
55	0x3f77f1eb	0.9685351
56	0x3f8eb91f	1.1150244
57	0x3f76ec7c	0.96454597
58	0x3f77140b	0.9651496
59	0x3f66688e	0.9000329
60	0x3f6c9fc1	0.92431265
61	0x3f7531e3	0.95779246
62	0x3f844820	1.0334511
63	0x3f672ec5	0.9030574

bn2.bias f4 [64]
0	0xbed80812	-0.42193657
1	0xbe9c03cd	-0.3047165
2	0xbf088d61	-0.5334073
3	0xbe90c2e2	-0.28273684
4	0xbf20ed11	-0.62861735
5	0xbede8a8f	-0.43465087
6	0xbeb0cfbd	-0.34533492
7	0xbedaafb6	-0.42712182
8	0xbeb2ef6f	-0.34948298
9	0xbe9b8a26	-0.30378836
10	0xbea7e711	-0.32793477
11	0xbefbc8ad	-0.4917654
12	0xbf03e3c7	-0.51519436
13	0xbef4188f	-0.47674987
14	0xbea0932c	-0.31362283
15	0xbf0372c6	-0.51347005
16	0xbe660d49	-0.22466005
17	0xbe66d42e	-0.22541878
18	0xbee912cd	-0.45522156
19	0xbe9c9ac0	-0.30586815
20	0xbeaebee6	-0.3413002
21	0xbee69d72	-0.45041996
22	0xbf0de2a0	-0.5542393
23	0xbf07c568	-0.53035593
24	0xbeed9142	-0.46399885
25	0xbedcd1a5	-0.43128696
26	0xbed60cea	-0.41806728
27	0xbe7c6956	-0.24649557
28	0xbe95322e	-0.29139847
29	0xbec15b53	-0.37764987
30	0xbeb47a79	-0.3524969
31	0xbf46f900	-0.77723694
32	0xbeafc4b8	-0.34329772
33	0xbf031af0	-0.5121298
34	0xbef99de3	-0.4875327
35	0xbec006ec	-0.3750528
36	0xbeec8017	-0.46191475
37	0xbefe93a0	-0.49722004
38	0xbed885df	-0.42289636
39	0xbe21cbb5	-0.15800364
40	0xbeccf9af	-0.40034243
41	0xbf021dfc	-0.50827
42	0xbf0764f6	-0.5288843
43	0xbf3d7b5c	-0.74016356
44	0xbeef7152	-0.46766144
45	0xbec904aa	-0.3926137
46	0xbee541de	-0.44776815
47	0xbf0d966c	-0.5530765
48	0xbedaf5a2	-0.42765528
49	0xbf22df71	-0.63622195
50	0xbefd685c	-0.49493682
51	0xbecc7289	-0.39931133
52	0xbf06e7e1	-0.5269757
53	0xbf48e0fe	-0.7846831
54	0xbf221778	-0.6331706
55	0xbf0ab88d	-0.5418785
56	0xbf095cad	-0.53657037
57	0xbe7aed76	-0.24504647
58	0xbf08e16a	-0.53468955
59	0xbe9e1f18	-0.30883098
60	0xbee6fdff	-0.4511566
61	0xbecd76d9	-0.40129736
62	0xbefe2a55	-0.49641672
63	0xbea50cdb	-0.3223637

bn2.running_mean f4 [64]
0	0xbfb98959	-1.449504
1	0xbfa1b8c0	-1.2634506
2	0xc010b2ec	-2.2609205
3	0xbf54acef	-0.83076376
4	0xbfb879bb	-1.4412149
5	0xc02d7fa2	-2.710915
6	0xc0127e90	-2.2889748
7	0xc0a14a97	-5.040355
8	0xc0314712	-2.7699628
9	0xc01a61d5	-2.4122212
10	0xc015b259	-2.3390105
11	0xc01c18b7	-2.4390085
12	0xc0698275	-3.6485875
13	0x3f1fda80	0.6244278
14	0xc04d0007	-3.2031267
15	0x3ed8ead5	0.42366663
16	0xbedf1203	-0.4356843
17	0xc0380f58	-2.8759365
18	0xc065f17d	-3.5928643
19	0xc035b7c6	-2.8393416
20	0xbfa06f01	-1.2533876
21	0xc0546087	-3.3183916
22	0xc077a16d	-3.8692276
23	0xbd1d1f1b	-0.038359743
24	0xc025db6b	-2.5915172
25	0xc06c8bcd	-3.6960328
26	0xc04afb10	-3.1715736
27	0xc09dc35b	-4.930097
28	0xc0933248	-4.599888
29	0xc086cea6	-4.2127256
30	0xc007b82c	-2.120616
31	0x40113c9b	2.269324
32	0xc0177694	-2.3666124
33	0xbff74c31	-1.9320127
34	0x3f1a84dd	0.60358983
35	0xc01561b0	-2.3340874
36	0xc02cd7b2	-2.700665
37	0xbfe7aa3b	-1.8098825
38	0xc0a05b1b	-5.0111213
39	0xc01a26b5	-2.4086125
40	0x3f9f30cb	1.2436765
41	0xc04df8e3	-3.2183158
42	0xc00b3e13	-2.1756637
43	0xc064b13b	-3.5733173
44	0xbfebc681	-1.8419954
45	0xc08ef5f4	-4.4675236
46	0xc052c654	-3.293355
47	0xbef6ea66	-0.48225707
48	0xc01f8bf7	-2.4929178
49	0xbfd7d5b4	-1.6862092
50	0xc06a4f02	-3.6610723
51	0xc04ea8d8	-3.2290554
52	0xc00481d3	-2.0704238
53	0x3e5d587a	0.21615782
54	0xc0b5cc4c	-5.6811886
55	0xc0579607	-3.368532
56	0xc042d099	-3.0439818
57	0xc028381c	-2.6284246
58	0xc0298994	-2.649022
59	0xc01026bc	-2.2523642
60	0xc00c0f16	-2.1884208
61	0xc0115543	-2.270829
62	0xc0737072	-3.803738
63	0xc0a46300	-5.137085

bn2.running_var f4 [64]
0	0x40de97dd	6.956038
1	0x41140e4d	9.253491
2	0x40b346f9	5.6024137
3	0x413abedf	11.671599
4	0x41014682	8.079714
5	0x40e8e9bd	7.2785325
6	0x410a2702	8.634523
7	0x41070d85	8.440801
8	0x415b0950	13.689774
9	0x40d7220c	6.722906
10	0x4107ccd5	8.487508
11	0x4131815f	11.094085
12	0x4144c338	12.297661
13	0x4126624c	10.398998
14	0x41456967	12.338233
15	0x41158f2d	9.347455
16	0x40d1b6a9	6.5535474
17	0x4172596d	15.146832
18	0x414549c6	12.330511
19	0x40f7585a	7.729535
20	0x410c59c4	8.771915
21	0x4149108f	12.566543
22	0x40fa2dac	7.818075
23	0x412609cc	10.377392
24	0x413ff074	11.996204
25	0x411e468d	9.892224
26	0x410c1c33	8.756885
27	0x41541394	13.25478
28	0x41460b2e	12.377729
29	0x41738f1a	15.222437
30	0x40e0230b	7.0042777
31	0x4131398a	11.076548
32	0x4187117e	16.883541
33	0x41304d0d	11.018811
34	0x412f0191	10.937882
35	0x418a1c1a	17.263721
36	0x418fc152	17.969395
37	0x40a94326	5.289447
38	0x4190c318	18.09526
39	0x4149824e	12.594313
40	0x40fc1c4c	7.878454
41	0x413e2f56	11.886557
42	0x4121177b	10.068233
43	0x4112721a	9.152857
44	0x41058be3	8.346652
45	0x41386543	11.524722
46	0x4120dd3c	10.054012
47	0x40d679ff	6.702392
48	0x410c18d9	8.756066
49	0x410bf98c	8.748425
50	0x4136a3f2	11.415026
51	0x412cae12	10.792498
52	0x40d5f0d9	6.6856503
53	0x40dfd329	6.9945264
54	0x4187e871	16.988497
55	0x4120df88	10.054573
56	0x41197161	9.59018
57	0x41179622	9.4741535
58	0x40920dc7	4.564182
59	0x40f4e7b4	7.653284
60	0x40f122c0	7.535492
61	0x410d8bd7	8.846641
62	0x412edda2	10.92911
63	0x41538fb1	13.222581

conv3.weight f4 [128, 64, 3, 3]
0	0x3da1f9c0	0.07908964
1	0x3dd8f520	0.10593629
2	0xbd33c1f4	-0.04388614
3	0xbe4f8040	-0.20263767
4	0xbd413773	-0.04717202
5	0xbe68c28e	-0.22730467
6	0x3db2ca0e	0.08729945
7	0x3e355222	0.17707112
8	0xbd9ceada	-0.07661982
9	0xbd95ffa6	-0.07324152
10	0xbdd8f97c	-0.1059446
11	0xbe13869e	-0.14406821
12	0x3e5c33c4	0.21504122
13	0xbda6d95f	-0.08146929
14	0x3d3eb3b3	0.046558093
15	0xbdfd1656	-0.12357776
16	0xbe95fc41	-0.29294017
17	0xbe7d8e9b	-0.24761431
18	0x3d8ad009	0.06777961
19	0x3d513b2c	0.05108182
20	0xbcfaa11e	-0.030594405
21	0xbe087c77	-0.1332873
22	0xbd97e73f	-0.074171536
23	0x3de2ff0b	0.11083802
24	0xbd03f99a	-0.03222046
25	0xbad6e8fb	-0.0016396338
26	0x3d09df36	0.033660136
27	0xbd894727	-0.06703024
28	0x3d9e8d32	0.077417746
29	0xbe1979ab	-0.14987819
30	0x3d6c801a	0.057739355
31	0x3d82a587	0.06379228
32	0xbe758925	-0.23978098
33	0x3db547a0	0.08851552
34	0xbe0578a4	-0.13034302
35	0xbe6104c4	-0.21974474
36	0xbe0872cc	-0.13325042
37	0xbe183639	-0.14864434
38	0x3eb81f45	0.35961357
39	0x3d43001e	0.047607534
40	0x3d5fa4d8	0.054600567
41	0xbe4dca2a	-0.2009665
42	0xbd811262	-0.06302334
43	0xbe533ffd	-0.20629878
44	0xbe90204b	-0.28149638
45	0x3e8678c1	0.26264003
46	0xbd58fce3	-0.052975547
47	0xbe814bbc	-0.25253093
48	0x3e0cebf6	0.13761887
49	0xbdce1698	-0.10062903
50	0x3dcf3e0f	0.101192586
51	0x3d166816	0.036720358
52	0x3dd6d9b3	0.104907416
53	0xbe0049e5	-0.12528189
54	0xbda6f269	-0.08151705
55	0xbe1bcd4a	-0.1521503
56	0xbe22692a	-0.1586043
57	0x3c9d4c11	0.01920131
58	0x3e818f00	0.25304413
59	0xbe8ba60f	-0.2727513
60	0xbec91c94	-0.39279616
61	0xbe6b5f39	-0.22985543
62	0x3d2ad2ef	0.04170507
63	0x3d2ea3c3	0.042636644
64	0xbdfb8ffc	-0.12283322
65	0xbd67733e	-0.056506388
66	0xbd37523d	-0.044756163
67	0xbe1da05d	-0.15393205
68	0x3e71275a	0.23550168
69	0x3e11984a	0.1421825
70	0x3da65f90	0.08123696
71	0xbdad3599	-0.084574886
72	0xbe0a5834	-0.1351021
73	0x3d0163e3	0.0315894
74	0x3a52df02	0.0008044095
75	0x3d7e0c1b	0.062023263
76	0x3c8cc260	0.017182529
77	0xbece908a	-0.4034465
78	0xbe67619e	-0.22595832
79	0xbe59fada	-0.21287099
80	0xbeb9a368	-0.36257482
81	0x3d15fc67	0.036617663
82	0xbcf2c61b	-0.02963548
83	0xbd4fcebc	-0.050734267
84	0xbe4a5b9b	-0.19761507
85	0xbe02ab1a	-0.12760583
86	0xbdfbc82d	-0.1229404
87	0xbe39b28c	-0.18134516
88	0xbdf567b9	-0.11982674
89	0xbe9fb0db	-0.31189618
90	0x3d8be9f5	0.06831733
91	0x3dbe2426	0.092842385
92	0xbeb63c64	-0.3559295
93	0xbe024019	-0.12719764
94	0xbe8928ed	-0.26789036
95	0xbd8d82fd	-0.0690975
96	0x3da30418	0.07959765
97	0x3dc65ad2	0.09685291
98	0xbc26e1fc	-0.010185715
99	0x3d9c0504	0.07618144
100	0xbddb80e3	-0.107179426
101	0xbdce9161	-0.100863226
102	0xbe3c49c3	-0.18387513
103	0xbdc29dab	-0.09502729
104	0x3dc33bea	0.09532912
105	0xbe9f3085	-0.31091705
106	0xbe18441b	-0.1486973
107	0xbe980f43	-0.29699144
108	0xbe53ecc4	-0.20695788
109	0x3bcdc7c6	0.0062799184
110	0x3cfbe527	0.030748917
111	0xbe16b6bd	-0.14718147
112	0x3ebdb7c8	0.37054276
113	0xbd175401	-0.036945347
114	0xbe108e3b	-0.14116757
115	0xbdf98919	-0.121843524
116	0xbe1bb6c5	-0.1520644
117	0xbf0a81de	-0.5410441
118	0x3d93c315	0.07214943
119	0x3d977e79	0.073971696
120	0xbeb2695f	-0.34846017
121	0xbdc290de	-0.095002875
122	0x3d338f1d	0.043837655
123	0xbddc6350	-0.1076113
124	0xbe3c9c2d	-0.18418951
125	0xbe0a846c	-0.13527077
126	0x3dcaf1bc	0.099093884
127	0xbdac1436	-0.084022924
128	0x3d8bd28f	0.0682727
129	0x3cd6e8ae	0.026233997
130	0xbe478069	-0.19482578
131	0xbe4d75ca	-0.20064464
132	0xbf06b723	-0.52623194
133	0xbe0703ee	-0.13185093
134	0xbebfd477	-0.37466785
135	0xbdccc7c9	-0.099990435
136	0x3d9eaae5	0.07747439
137	0xbe2ced8a	-0.16887489
138	0xbd817fb0	-0.063231826
139	0xbe67895b	-0.2261099
140	0xbc716a2a	-0.014734784
141	0xbe132538	-0.14369667
142	0xbd9308db	-0.071794234
143	0x3e62d378	0.22150981
144	0x3c00b51d	0.007855681
145	0xbd051187	-0.03248742
146	0x3dab4037	0.083618574
147	0x3c92ae23	0.0179053
148	0xbd3996be	-0.045309775
149	0x3e2d72b1	0.16938283
150	0xbe9f4685	-0.3110849
151	0xbe150d79	-0.1455592
152	0xbe1158ad	-0.14193983
153	0x3cee9e96	0.029128354
154	0x3d2fabc4	0.042888418
155	0xbdc09c3f	-0.094048016
156	0xbe53de4d	-0.2069027
157	0x3da6cfad	0.0814508
158	0x3e61b1a8	0.22040427
159	0xbda0b368	-0.07846719
160	0xbd973420	-0.07382989
161	0x3e19d24d	0.1502163
162	0x3da37877	0.07981961
163	0xbe2aeb47	-0.16691314
164	0xbe0ed5f3	-0.13948803
165	0xbd15864a	-0.03650502
166	0x3e85f011	0.2615972
167	0x3e3a7d94	0.18211967
168	0x3dceb255	0.10092608
169	0x3d68e350	0.056857407
170	0xbc9da84d	-0.019245291
171	0x3d5317fa	0.051536538
172	0x3d64e615	0.055883486
173	0x3b8f0088	0.004364077
174	0x3e80110d	0.2501301
175	0xbdb02f48	-0.08602768
176	0xbd3a437e	-0.04547452
177	0x3da7132c	0.081579536
178	0x3de02b2b	0.10945734
179	0xbdc044cf	-0.09388124
180	0xbd11b42c	-0.035572216
181	0x3e9107f9	0.28326395
182	0x3d3a7ca2	0.045529015
183	0x3e7ee3b8	0.24891555
184	0x3e8ac839	0.27105883
185	0xbd8298eb	-0.06376823
186	0x3ccaa379	0.024736153
187	0xbe24c3e4	-0.16090351
188	0xbda4560a	-0.08024223
189	0xbdc5d613	-0.09659972
190	0x3ea7820c	0.32716405
191	0xbdb37d28	-0.08764106
192	0x3e55b9b9	0.20871629
193	0xbe811055	-0.25207773
194	0xbdc9f20f	-0.09860622
195	0x3c080d99	0.008304023
196	0xbd47970b	-0.04872803
197	0xbe2adf11	-0.16686656
198	0x3da49ce6	0.080377385
199	0xbb395021	-0.002827652
200	0x3da0994e	0.078417405
201	0x3e4e285b	0.20132582
202	0xbd561c87	-0.0522733
203	0x3df0dace	0.11760484
204	0x3de609e2	0.11232354
205	0xbe238176	-0.15967354
206	0x3dc75396	0.097327396
207	0x3d93dd0e	0.07219897
208	0x3d015a0e	0.031580023
209	0x3ce4633d	0.027879352
210	0x3c21dcce	0.009879304
211	0xbc042e7b	-0.008067722
212	0xbe30dfb7	-0.1727284
213	0xbe43c873	-0.19119434
214	0xbd171eec	-0.036894724
215	0xbe81b9cc	-0.25337064
216	0x3e3837d5	0.17990048
217	0xbe9e6445	-0.30935875
218	0x3da38e7b	0.0798616
219	0x3ea2142f	0.31656024
220	0xbc68a736	-0.014200022
221	0x3da8b202	0.08237077
222	0xbd090600	-0.033452988
223	0xbe13320f	-0.14374565
224	0xbe8aafed	-0.27087346
225	0xbe924f8c	-0.28576314
226	0x3e1301d5	0.14356168
227	0x3ab271da	0.0013614253
228	0xbe8daaec	-0.27669466
229	0x3df87120	0.12130952
230	0xbd438fb2	-0.04774446
231	0xbeb24d6c	-0.34824693
232	0xbe5fc973	-0.2185419
233	0xbe67d7d8	-0.22640932
234	0x3dc05ba0	0.09392476
235	0xbd690fea	-0.056899942
236	0xbe050484	-0.12990004
237	0x3e8d75e1	0.27628997
238	0x3e6f0a64	0.23343807
239	0xbde0e0f0	-0.109804034
240	0x3bbcdd91	0.0057637175
241	0x3e91c7c3	0.2847272
242	0xbda1f039	-0.07907147
243	0x3e8f7f53	0.28026828
244	0xbe8de43a	-0.27713186
245	0xbce35ed2	-0.027755175
246	0x3e965d4a	0.2936805
247	0xbdac895f	-0.08424639
248	0x3e1cde3f	0.15319155
249	0x3c4723bf	0.012154519
250	0xbe04fb74	-0.12986547
251	0x3c8c6a34	0.017140485
252	0x3d12b8b2	0.03582067
253	0xbc65655d	-0.014001218
254	0x3dcafc3d	0.09911392
255	0x3e106d48	0.14104187

conv3.bias f4 [128]
0	0x3b8b1de2	0.0042455057
1	0x3c833808	0.016017929
2	0xbc3f1ff8	-0.011665337
3	0x3b60198b	0.0034194912
4	0xbbad8417	-0.0052952874
5	0x3ccd0594	0.025027074
6	0x3ce49bd6	0.02790634
7	0x3cfce429	0.030870514
8	0x3c4a28ac	0.0123387985
9	0x3d06363a	0.03276656
10	0x3cb5012d	0.022095287
11	0x398de349	0.00027062956
12	0x3ba55d17	0.0050464976
13	0xbce0c902	-0.027439598
14	0x3bce5c5c	0.006297631
15	0xbd4c9f68	-0.04995671
16	0x3ceca1e0	0.028885782
17	0x3d3e27fb	0.046424847
18	0x3d491c91	0.04909951
19	0x3b85e41d	0.004086031
20	0xbd2da25a	-0.04239116
21	0xbd023baf	-0.0317952
22	0x3c8955fd	0.016764635
23	0xbd2de570	-0.042455137
24	0xbc6197e1	-0.013769121
25	0x3ccb9039	0.024849044
26	0xbb8d2e7e	-0.004308521
27	0x3c517361	0.012783856
28	0x3ca44762	0.02005357
29	0xbab9e91d	-0.0014183853
30	0xbd85973f	-0.065229885
31	0x3cf0c6d1	0.029391678
32	0x3d30f661	0.043203715
33	0x3c0d9c01	0.008643151
34	0x3c6252ff	0.013813733
35	0xbc3517ac	-0.011053007
36	0xbcf4bc51	-0.029874953
37	0x3cfa905a	0.03058641
38	0xbcf59b14	-0.029981174
39	0xbbbc4677	-0.0057457048
40	0x3d07d16b	0.0331587
41	0xbcc4aeba	-0.024009097
42	0xbcf23c84	-0.029569872
43	0x3bc41bee	0.005984775
44	0xbc8586f4	-0.016299702
45	0xbced6607	-0.028979314
46	0x3cb098f6	0.021557312
47	0xbd003747	-0.031302717
48	0xb7831e8b	-1.563064e-05
49	0xbc5da2a2	-0.013527544
50	0xbd376ee9	-0.044783507
51	0xbcd4f16f	-0.02599403
52	0xbd15f160	-0.036607146
53	0x3b86d371	0.0041145612
54	0x3c0f2f2e	0.008739276
55	0x3c90ba1c	0.017666869
56	0x3d635a36	0.055505954
57	0x3ca781fd	0.020447725
58	0x3cd3945c	0.02582758
59	0x3d4e7dab	0.050412815
60	0xbc5fbac4	-0.013655368
61	0xbd04b2e1	-0.032397155
62	0x3c3ae783	0.011407736
63	0xbc2a2eb7	-0.010387114
64	0xbb69b376	-0.0035659946
65	0x3d22c1f6	0.039735757
66	0x3bc9398b	0.006140893
67	0x3a8be3a4	0.0010672701
68	0xbd285ca1	-0.041103963
69	0x3cfcea9a	0.030873585
70	0xbd503ff8	-0.050842255
71	0x3d295e8e	0.04134994
72	0x3cd6afa3	0.026206797
73	0x3cc67b66	0.024228763
74	0x3cae2b3d	0.021260852
75	0xbcf1bccc	-0.02950897
76	0x3cf8e7db	0.030383995
77	0x3c955fbc	0.018234126
78	0x3cc1ed8a	0.023672838
79	0xb83f602f	-4.5627527e-05
80	0xbca04929	-0.019566135
81	0xbbfb204e	-0.007663763
82	0xbcf1b6c3	-0.029506093
83	0xb9a49216	-0.0003138936
84	0xbcfee3d5	-0.031114498
85	0xbc84c0fc	-0.016205303
86	0xbc913c9d	-0.017729098
87	0x3c64c4f6	0.013962975
88	0x3c559f24	0.01303843
89	0x3c3c870e	0.011506809
90	0x391776f1	0.00014444791
91	0xbd38188c	-0.044945285
92	0xbd5836d3	-0.05278666
93	0x3cce18bd	0.02515828
94	0xbd37aa32	-0.044840045
95	0x3c20e1a0	0.009819418
96	0x3cd2e08a	0.025741834
97	0xbd055e19	-0.03256044
98	0x3cd3d405	0.025857935
99	0x3d177332	0.036975093
100	0x39da484d	0.00041634068
101	0xbc70156f	-0.014653548
102	0x3c9b2221	0.018937172
103	0x3d0ebf13	0.03485019
104	0xbc37e08e	-0.011222972
105	0x3cc982bb	0.02459847
106	0xbceb2d38	-0.028708085
107	0x3ccbe1ca	0.024887938
108	0xbd047ca5	-0.032345433
109	0x3cf8b45d	0.030359441
110	0xbd24e75b	-0.0402597
111	0xbc5caae1	-0.013468475
112	0x3d087dcd	0.033323098
113	0xbc65359a	-0.01398983
114	0xbd4c691b	-0.049904924
115	0x3c334791	0.010942356
116	0x3d21f54a	0.039540567
117	0xbd60e604	-0.05490686
118	0x3ab65798	0.0013911603
119	0x3c434d0b	0.011920224
120	0xbcf3fd15	-0.029783765
121	0xbad153b4	-0.001597038
122	0xbd029ebb	-0.03188966
123	0xbd1ccf7c	-0.03828381
124	0xbd10fd2d	-0.035397697
125	0x3cf6eadd	0.030141288
126	0xbcda05f2	-0.026614163
127	0xbc6bafb8	-0.014385156

bn3.weight f4 [128]
0	0x3f844688	1.0334024
1	0x3f819495	1.0123469
2	0x3f6cff77	0.9257731
3	0x3f6ebeb2	0.9325973
4	0x3f68c710	0.90928745
5	0x3f715d34	0.9428284
6	0x3f8507ad	1.0392967
7	0x3f71ffde	0.9453105
8	0x3f870d2a	1.0550892
9	0x3f7e6043	0.99365634
10	0x3f3d770e	0.7400979
11	0x3f81f264	1.0152097
12	0x3f819a41	1.01252
13	0x3f4261f7	0.7593073
14	0x3f821333	1.0162109
15	0x3f30300d	0.6882332
16	0x3f5fb120	0.87379646
17	0x3f88d60a	1.069032
18	0x3f6bfc1d	0.9218157
19	0x3f766db9	0.96261173
20	0x3f7c7e5a	0.986303
21	0x3f77421a	0.9658524
22	0x3f682664	0.9068358
23	0x3f805b14	1.0027795
24	0x3f787a53	0.9706165
25	0x3f5d2895	0.8639005
26	0x3f87f6e8	1.0622225
27	0x3f861b6e	1.0477121
28	0x3f737b47	0.9510998
29	0x3f6a415c	0.9150598
30	0x3f540791	0.82824045
31	0x3f827606	1.0192268
32	0x3f6db908	0.9286046
33	0x3f7c5e09	0.98580986
34	0x3f746c60	0.9547787
35	0x3f86d1a1	1.0532724
36	0x3f7dd71c	0.99156356
37	0x3f782e09	0.96945244
38	0x3f6df297	0.9294829
39	0x3f525819	0.82165676
40	0x3f8734e9	1.0563022
41	0x3f821cbc	1.0165019
42	0x3f68076b	0.9063632
43	0x3f7bcaa3	0.98356074
44	0x3f907cab	1.1288046
45	0x3f6cc0f1	0.92481905
46	0x3f6f866c	0.93564487
47	0x3f8da9ca	1.106744
48	0x3f85edfc	1.0463252
49	0x3f8e2450	1.1104832
50	0x3f8c3981	1.0955049
51	0x3f732f77	0.949943
52	0x3f7ff9dc	0.9999063
53	0x3f7935c7	0.9734768
54	0x3f84f920	1.0388527
55	0x3f606808	0.8765874
56	0x3f78d292	0.97196305
57	0x3f6c9849	0.9241987
58	0x3f452c02	0.77020276
59	0x3f7233bc	0.9461019
60	0x3f7c71a1	0.98610884
61	0x3f65e931	0.89808947
62	0x3f90f74a	1.1325467
63	0x3f86c340	1.0528336
64	0x3f8963cc	1.073358
65	0x3f79bb32	0.9755126
66	0x3f8ebd9b	1.1151613
67	0x3f7223e4	0.94586015
68	0x3f558d0f	0.83418363
69	0x3f4c511e	0.79811275
70	0x3f830f4e	1.0239046
71	0x3f60027d	0.87503797
72	0x3f8cf0f5	1.1011034
73	0x3f98d791	1.1940786
74	0x3f82debc	1.0224223
75	0x3f7c30aa	0.98511755
76	0x3f84b7f0	1.0368633
77	0x3f92414e	1.142618
78	0x3f875e8e	1.0575731
79	0x3f717161	0.9431363
80	0x3f8a208b	1.0791181
81	0x3f73f228	0.95291376
82	0x3f6169dd	0.8805216
83	0x3f71e075	0.9448312
84	0x3f7069fd	0.93911725
85	0x3f5cc1e2	0.8623334
86	0x3f6525ac	0.8951061
87	0x3f44ce6d	0.7687748
88	0x3f6720de	0.90284526
89	0x3f6c3ecb	0.92283314
90	0x3f935b0c	1.151216
91	0x3f7e4f86	0.99340093
92	0x3f7064b5	0.93903667
93	0x3f5d25cb	0.8638579
94	0x3f4a7018	0.7907729
95	0x3f8c300b	1.0952162
96	0x3f66fd37	0.90230125
97	0x3f806f2e	1.0033929
98	0x3f5bfd14	0.8593304
99	0x3f7102cb	0.94144887
100	0x3f9887b9	1.1916419
101	0x3f890aad	1.0706383
102	0x3f737e61	0.95114714
103	0x3f8421d3	1.0322822
104	0x3f5e309d	0.8679293
105	0x3f8176b3	1.0114349
106	0x3f74441c	0.95416427
107	0x3f9bd7fe	1.217529
108	0x3f8bc323	1.0918926
109	0x3f88fac6	1.070153
110	0x3f57d579	0.8431011
111	0x3f67223f	0.9028663
112	0x3f4dcaf5	0.8038781
113	0x3f8b74f2	1.0895064
114	0x3f6882ce	0.9082459
115	0x3f679acb	0.9047057
116	0x3f9a986f	1.2077769
117	0x3f720690	0.94541264
118	0x3f6ecbd0	0.93279743
119	0x3f84b7a6	1.0368545
120	0x3f7bc5a3	0.98348445
121	0x3f6395bd	0.8890036
122	0x3f5d6ee9	0.8649736
123	0x3f53a7b2	0.8267776
124	0x3f86e2b0	1.053793
125	0x3f82c61f	1.0216712
126	0x3f825436	1.0181949
127	0x3f76bbd2	0.9638034

bn3.bias f4 [128]
0	0xbebeda8e	-0.3727612
1	0xbed13fef	-0.4086909
2	0xbe933ef7	-0.28758976
3	0xbeeffadd	-0.4687108
4	0xbf032060	-0.51221275
5	0xbec05785	-0.37566772
6	0xbeadc761	-0.33941177
7	0xbea75b60	-0.326869
8	0xbeefedec	-0.46861207
9	0xbed33366	-0.4125015
10	0xbf108b8b	-0.56462926
11	0xbef984cc	-0.48734128
12	0xbef3d2bd	-0.47621718
13	0xbf080fd5	-0.5314916
14	0xbe88e035	-0.26733556
15	0xbef0f56f	-0.4706225
16	0xbef8948d	-0.48550835
17	0xbefb247a	-0.49051267
18	0xbecd4d36	-0.4009797
19	0xbec2a670	-0.38017607
20	0xbee3f723	-0.44524488
21	0xbef76db4	-0.48325884
22	0xbed8ea6e	-0.42366356
23	0xbee9f29a	-0.45692903
24	0xbef74171	-0.48292115
25	0xbeed799e	-0.4638185
26	0xbf149d6a	-0.58052695
27	0xbeb78d46	-0.3584997
28	0xbeb39210	-0.35072374
29	0xbec755ab	-0.38932547
30	0xbef412ce	-0.47670597
31	0xbec3046a	-0.38089305
32	0xbece9184	-0.40345395
33	0xbf08da72	-0.5345832
34	0xbee84b69	-0.45370033
35	0xbf05721f	-0.5212726
36	0xbeacc401	-0.3374329
37	0xbeba0a37	-0.36335918
38	0xbeb78bbd	-0.358488
39	0xbee5cd9a	-0.44883424
40	0xbeccf83c	-0.40033138
41	0xbed778a0	-0.42084217
42	0xbef99bfd	-0.48751822
43	0xbec31e20	-0.3810892
44	0xbf09ead7	-0.5387396
45	0xbeecc920	-0.46247196
46	0xbeac7472	-0.3368259
47	0xbed4dcc1	-0.41574672
48	0xbea8f8a6	-0.33002204
49	0xbf02b4d1	-0.51057154
50	0xbf16e2fe	-0.5894011
51	0xbeb05e0a	-0.34446746
52	0xbee5d889	-0.44891766
53	0xbed557e4	-0.41668618
54	0xbf04f9ac	-0.5194347
55	0xbecb9f2c	-0.39769876
56	0xbec94c58	-0.39316058
57	0xbeca4a7d	-0.39509955
58	0xbed8d9a1	-0.42353538
59	0xbee48a41	-0.4463673
60	0xbebb1c3d	-0.36544982
61	0xbebd769b	-0.3700455
62	0xbf00a0cf	-0.50245374
63	0xbe9c1922	-0.30487925
64	0xbf09cbaf	-0.5382642
65	0xbee678d6	-0.45014066
66	0xbf29a091	-0.6626063
67	0xbec6fb11	-0.38863423
68	0xbece74fd	-0.4032363
69	0xbee0fbbd	-0.4394206
70	0xbec17ae9	-0.37789086
71	0xbea6606a	-0.32495433
72	0xbece9b87	-0.40353033
73	0xbef1274e	-0.471003
74	0xbed4a5bb	-0.41532692
75	0xbf093e31	-0.5361052
76	0xbedb8bb8	-0.42880034
77	0xbf026f25	-0.50950843
78	0xbf069cb7	-0.5258288
79	0xbeba8b0b	-0.36434206
80	0xbed63135	-0.41834417
81	0xbf08c852	-0.53430665
82	0xbedce170	-0.43140745
83	0xbed70180	-0.41993332
84	0xbed2bb16	-0.4115836
85	0xbea60b1f	-0.3243036
86	0xbed29412	-0.41128594
87	0xbedf49e3	-0.4361106
88	0xbefd59e1	-0.49482635
89	0xbebb2a9a	-0.3655594
90	0xbf25e202	-0.64797986
91	0xbe9d2c82	-0.3069802
92	0xbebf795a	-0.3739727
93	0xbef8c12f	-0.48584887
94	0xbf024c96	-0.5089811
95	0xbebdc780	-0.3706627
96	0xbef888ce	-0.48541874
97	0xbf034e9b	-0.5129182
98	0xbee786d7	-0.45220062
99	0xbed6e6b7	-0.41972896
100	0xbf284c3b	-0.6574132
101	0xbf09b27c	-0.5378797
102	0xbeb66275	-0.35621992
103	0xbee615ac	-0.4493841
104	0xbea065b7	-0.31327602
105	0xbe910df9	-0.28330973
106	0xbe930e7a	-0.28721982
107	0xbf037d74	-0.513633
108	0xbf17b0f0	-0.5925436
109	0xbf176cf9	-0.59150654
110	0xbec5786c	-0.38568437
111	0xbec8df92	-0.3923307
112	0xbeb2393f	-0.348093
113	0xbf2b84c9	-0.6699949
114	0xbefd00af	-0.49414584
115	0xbf03758e	-0.5135125
116	0xbf11cee1	-0.569563
117	0xbf06f5dd	-0.5271891
118	0xbee2d849	-0.44305637
119	0xbf115598	-0.5677123
120	0xbed66055	-0.4187037
121	0xbebca899	-0.3684738
122	0xbedaff7f	-0.42773053
123	0xbebbb23a	-0.36659414
124	0xbee82ffa	-0.45349103
125	0xbeed8a2d	-0.46394482
126	0xbf0755fb	-0.5286557
127	0xbeb7e5b9	-0.35917452

bn3.running_mean f4 [128]
0	0xc0a9caec	-5.3060207
1	0xc03bac9c	-2.9324102
2	0xc09ad37c	-4.838316
3	0xc00eeede	-2.2333293
4	0xc01431a4	-2.3155298
5	0xc0626cc9	-3.5378897
6	0xc020329d	-2.5030892
7	0xbfe5cc05	-1.7952887
8	0xc047985c	-3.1186743
9	0xc0d2506e	-6.572318
10	0x4014782e	2.3198352
11	0xc0697162	-3.6475453
12	0xc075d7ec	-3.8413038
13	0xbe38bc9e	-0.18040702
14	0xbf9800f9	-1.1875297
15	0xc0491c37	-3.142347
16	0x3d58105e	0.052749984
17	0xc05d569d	-3.4584115
18	0xbfbed036	-1.4907291
19	0xbfeefff6	-1.8671863
20	0xc0883de0	-4.257553
21	0xc0595fb3	-3.396466
22	0xc03c47b5	-2.9418766
23	0xc053f1d4	-3.311635
24	0xc03dc31a	-2.965033
25	0xc0b9bf1e	-5.8045797
26	0xc0115ad1	-2.271168
27	0xc0a47fe4	-5.1406116
28	0xc085d95f	-4.1827846
29	0xbe3513dc	-0.17683357
30	0xc0956438	-4.6684837
31	0xc0969377	-4.705501
32	0xc0557f8d	-3.33591
33	0xc0a66f9b	-5.2011237
34	0x3f0f639a	0.56011355
35	0xc0851ee9	-4.160023
36	0xc0b32760	-5.5985565
37	0xc0a1b514	-5.0533543
38	0xc07dc00c	-3.9648466
39	0xc080062b	-4.000753
40	0xc0b3d80a	-5.620122
41	0xc03e1c66	-2.9704833
42	0xc07a47a7	-3.9106233
43	0xc071db3e	-3.7790065
44	0xc0973dcc	-4.7262936
45	0xc088eaed	-4.2786775
46	0xc06ed9dc	-3.732047
47	0xc0851771	-4.1591115
48	0xc09831e2	-4.756089
49	0xc08c6edb	-4.388532
50	0xc084bfa1	-4.148392
51	0xc0ac8b73	-5.3920226
52	0xc05e76aa	-3.4759927
53	0xc03aa46b	-2.9162853
54	0xc01c5b17	-2.4430597
55	0xc0d1fd24	-6.562151
56	0xc0a27513	-5.0767913
57	0xc0614130	-3.5196037
58	0xbec0ac69	-0.3763154
59	0xc03a60c3	-2.9121559
60	0xbfd35a33	-1.6511902
61	0xbfec3ace	-1.8455446
62	0xc0878f62	-4.236253
63	0xc054940b	-3.3215358
64	0xc0ce3d43	-6.444978
65	0xc0f20248	-7.5627785
66	0xc09d8359	-4.9222836
67	0x405ed5f2	3.4818082
68	0xc0e1866c	-7.047659
69	0x3eea9b98	0.45821834
70	0xc097bed4	-4.7420444
71	0xc084c67e	-4.14923
72	0xc085282a	-4.161153
73	0xc05b96bd	-3.4310753
74	0xc0d8b1ea	-6.771718
75	0xbe830bc0	-0.25594902
76	0xc0ec3d4b	-7.382482
77	0xc02b4dc8	-2.6766224
78	0xc06c4171	-3.6914942
79	0xc0a7fca5	-5.2495904
80	0xbfa9e7ef	-1.3273906
81	0xc08944c5	-4.2896447
82	0xc0c145e0	-6.0397797
83	0xc01ed09e	-2.481483
84	0xc02fa773	-2.7445953
85	0xc0a2b993	-5.085153
86	0xc067ba45	-3.620744
87	0xc0828c3f	-4.07962
88	0xc0d26581	-6.5748906
89	0xc0f4b9e4	-7.6476917
90	0xc0acd5aa	-5.401082
91	0xc0a3a235	-5.1135507
92	0xc0b217e1	-5.565415
93	0xc03f4efb	-2.9891956
94	0x3f5a3c9d	0.8524874
95	0xc042dad3	-3.044606
96	0xc08ae66f	-4.340629
97	0xc09b9695	-4.8621316
98	0xc0681c14	-3.6267138
99	0xc0e0bd23	-7.023088
100	0xc08b1c21	-4.3471837
101	0xc039790c	-2.898013
102	0xc0931444	-4.596224
103	0xc097d8b4	-4.745203
104	0xc0908745	-4.5165124
105	0xc0d2681b	-6.575208
106	0xbfbf8c0d	-1.4964615
107	0xc0a3bc6e	-5.1167517
108	0xc099cdc0	-4.806366
109	0xbfb12858	-1.3840437
110	0xc0bcccdb	-5.900007
111	0xbfc96cb8	-1.5736303
112	0xc04f98cc	-3.243701
113	0xc0923046	-4.5683928
114	0x3f529e13	0.8227245
115	0xc05c525d	-3.442527
116	0xbff69048	-1.9262781
117	0xc06a10dd	-3.6572793
118	0xc0a0eba6	-5.0287657
119	0xc05cad65	-3.4480832
120	0xc00f77c4	-2.241685
121	0xc0b7f05c	-5.7480907
122	0xc122654a	-10.149729
123	0xc106a788	-8.415901
124	0xc0ababb3	-5.3647094
125	0xc0c31c65	-6.097216
126	0xbf94f4d6	-1.1637218
127	0x3f945f2b	1.1591543

bn3.running_var f4 [128]
0	0x416cc540	14.798157
1	0x41242b4f	10.260573
2	0x41245eb0	10.273117
3	0x410a1961	8.631196
4	0x411d7041	9.839906
5	0x4180e3a1	16.111147
6	0x41361e24	11.382359
7	0x414005e6	12.00144
8	0x41132e1e	9.198759
9	0x413e9c04	11.91309
10	0x4115de7d	9.366818
11	0x4129f25d	10.621671
12	0x413e7024	11.902378
13	0x40b7f048	5.748081
14	0x41753940	15.326477
15	0x40e9a685	7.301577
16	0x4121a733	10.10332
17	0x41103439	9.01275
18	0x40f7e95e	7.747237
19	0x413066ed	11.025128
20	0x41293578	10.575554
21	0x41165984	9.396854
22	0x4102c477	8.172965
23	0x4146dc7b	12.428828
24	0x4116736e	9.403181
25	0x41136a2f	9.213424
26	0x40fef2f3	7.967157
27	0x4146d8ed	12.42796
28	0x4195d420	18.728577
29	0x412fe5bc	10.9935875
30	0x40dd7aae	6.9212255
31	0x413cd1a3	11.801181
32	0x413602c3	11.375674
33	0x412e6d24	10.901646
34	0x41390818	11.564476
35	0x41630da3	14.190829
36	0x4129cd92	10.612688
37	0x41236664	10.212498
38	0x411d6a84	9.838505
39	0x40f5d9af	7.6828227
40	0x41317834	11.091846
41	0x41329405	11.161138
42	0x40f7b029	7.740254
43	0x41354e0d	11.331555
44	0x413eedd2	11.933062
45	0x40ddea7f	6.934875
46	0x41291d95	10.569722
47	0x41133a80	9.201782
48	0x413f7388	11.965706
49	0x41254003	10.328128
50	0x41182919	9.510034
51	0x4125340b	10.325206
52	0x41011be4	8.069309
53	0x4111b421	9.106477
54	0x412761d9	10.461389
55	0x413fdd60	11.991547
56	0x4141a1e6	12.102026
57	0x41750e68	15.316017
58	0x40bef6af	5.9676127
59	0x4143d403	12.239261
60	0x41241d33	10.257129
61	0x410fdbdb	8.991176
62	0x41278a61	10.471284
63	0x41461342	12.379702
64	0x41169022	9.410189
65	0x4187e89a	16.988575
66	0x40c00be6	6.0014524
67	0x412e6ec4	10.902042
68	0x41240f49	10.253732
69	0x41012ca5	8.0734
70	0x4122498d	10.142957
71	0x413fe388	11.99305
72	0x416c3737	14.76348
73	0x4116eb2c	9.432415
74	0x4134bb6b	11.295756
75	0x4106ec81	8.43274
76	0x4152d8ec	13.177959
77	0x411033ed	9.012677
78	0x41122ceb	9.135966
79	0x4128cb92	10.5497
80	0x415f3197	13.949607
81	0x411ead7e	9.9173565
82	0x412416ea	10.255594
83	0x4104bfc9	8.296823
84	0x4102864f	8.15779
85	0x4143a819	12.228539
86	0x417126e4	15.071995
87	0x41155ddd	9.335416
88	0x41101c9e	9.006987
89	0x413642d7	11.391318
90	0x4118b65f	9.544524
91	0x417fb837	15.982474
92	0x417040b0	15.015793
93	0x4139c6e6	11.611059
94	0x40adaddf	5.4274745
95	0x41091e49	8.569894
96	0x411405c4	9.251408
97	0x40fa5299	7.8225827
98	0x40e43d84	7.132509
99	0x410165bd	8.087338
100	0x410da49e	8.85269
101	0x412f29f3	10.9477415
102	0x41a0be8d	20.093042
103	0x4119d17b	9.613643
104	0x415e69f1	13.900865
105	0x41483179	12.512078
106	0x412ef444	10.934635
107	0x414eb10c	12.918224
108	0x41483570	12.513046
109	0x41005435	8.020558
110	0x4143a5c8	12.227974
111	0x412f5555	10.958333
112	0x413b2537	11.696586
113	0x40ff1b28	7.972065
114	0x41300c75	11.003041
115	0x411c676e	9.775251
116	0x40eb6a08	7.3566933
117	0x410c87ef	8.783187
118	0x415a897d	13.658566
119	0x410b81e1	8.719209
120	0x4128aeb5	10.542653
121	0x4160227e	14.008421
122	0x416db0f4	14.855701
123	0x4151cdaf	13.112716
124	0x41172e86	9.448858
125	0x4128cdf2	10.55028
126	0x412f36f5	10.950917
127	0x410fc2a4	8.98502
